spendings_predictor4.pt (torch, 148828 bytes, 6 tensors)

weight f4 [256, 9]
00000000: a056 e2bd dbe9 0abd ab68 753e c2c9 55bc
00000010: 717f a13e b8a3 303e 1126 183e 133c 993d
00000020: 3cc0 fd3c bf9c 683d 28f2 8bbe feb8 0a3d
00000030: 83e6 993e f80d 9d3e f505 663e ed77 a0be
00000040: eaaf 8f3e 1f4c 89be 8f08 1bbe fa09 3cbe
00000050: 8346 a1bd 532e 35be 22e1 8e3e 5654 a23d
00000060: e071 56be 2b67 233e 6b90 983e fad2 9dbd
00000070: 00b4 513e b94b 20be cdd0 e3bd 0e6d 563e
00000080: 4dd8 8fbe 31cb 62be f02e 7cbd 72a7 18be
00000090: 2d6d 583d 12b2 a5bc ecbe a2be 0a5c 52bd
000000a0: cdc7 e23d 2fe4 893e c6a5 9c3e fc31 5f3e
000000b0: ccf9 3dbe fbc3 bcbb e7f7 2bbe 3335 8bbe
000000c0: ac34 a1be 96b6 a8be d1bd cabd 8978 eb3d
000000d0: fe8d 9abe d041 833e 8b2b 313e 0ca4 043d
000000e0: 99be c4bb 6910 0e3e a794 97bd b7c4 8f3e
000000f0: 76de 31bd 286a eabc f054 38be caf7 913e
00000100: 6776 0d3d 160b c3bc c924 df3d 27a1 013e
00000110: de87 88be 0dac a03e 44d9 9ebe c73e b8bc
00000120: ef20 41be 56d8 2c3c 5a3a 21be aa8a 86bd
00000130: 4dd2 d33d fb14 153e 1323 cdbd c37d aabb
00000140: 647e 853d 931d 0f3e b412 9fbe 7626 523e
00000150: 1c68 703e 190b 01be 6363 54be db67 44be
00000160: 4ea3 633e d302 1abe d834 8dbe 53fd 16be
00000170: 2559 af3d ad2c fcbc 0842 08be 876d 203e
00000180: fa13 803e 56ab 383e f0e6 9d3e e84e 6d3e
00000190: daa7 173d 97ee 2cbd a9ef 81be edb5 9f3e
000001a0: af14 7abc a58a a73d 28ae a93d 1013 7a3e
000001b0: ebc8 76be f14b 893b 5b8e 6cbe 4cf8 ccbd
000001c0: c9d7 053d acde 9c3e 6386 8c3e 000e c2bc
000001d0: 8fdd 41be d3df 8ebe 420c 213e 6139 7b3e
000001e0: 97c5 9a3e ad80 963d 7ddf 2e3d 8cbf 373d
000001f0: 1121 7c3e d238 3ebd 9e64 73bd 0e37 1c3e
00000200: cb3d 32bc c7f3 f43d 4c33 a3be 36a4 ef3c
00000210: 1c61 59be 932a 8a3e 2b7d 243e 4ade 803d
00000220: e1d9 423e d229 18be f1a1 143d d6d0 493d
00000230: 6928 97be dc48 96be c625 a13e 8841 7e3e
00000240: 0e6a 19be f3c7 e33d b566 483e 4898 a0be
00000250: 21cc 0c3e 2a52 a53e d7cc 5d3e 4f4f 1a3e
00000260: 392a 2fbe e556 71be 03a4 c03d b408 543e
00000270: 57b5 993e 4ddf 113e 4630 9e3e 5a70 83bc
00000280: a377 c93b cb85 ed3d 237e 9cbe d108 2f3e
00000290: a21f 093e 3be2 a5be 8b3c a03e 0028 b4bd
000002a0: cb54 843e 940c c43d 8080 4d3d e43f 143e
000002b0: a0b2 9a3e 9e39 05be ba3c 61be 023c 513e
000002c0: f81e 2bbd b3c9 3dbd 6c9d 5cbe 35b4 a4bd
000002d0: a4ac b4bd 27a6 153e 77f8 a8bb fc49 fdbc
000002e0: c5af f2bb cf19 a6be 6563 66be 7d79 90be
000002f0: eb41 803e 14db 39be 283e 55be 44aa f43d
00000300: dee4 6fbe d828 9c3e 0fb4 6a3e 6fd2 633e
00000310: bce4 fabd 2287 18be abd6 88be fc70 aa3d
00000320: 0d66 933e c3dd 973e 9af7 353e c37a 813e
00000330: 6265 41be 5e26 793b a12a 103e a26f e23d
00000340: 464a 8bbd 45f2 e43d 195a fdbd c09e 1b3e
00000350: d9c2 b7bc a659 8bbe 8908 343d ae6b 56be
00000360: f726 563e 3217 173e 060a 633e 4a4c 0e3e
00000370: 8a9e 073e b4c1 d23d 0398 573e 5b75 cb3d
00000380: 71d9 d93d 354d 983d 555a 233c e1ea 773e
00000390: c800 cfba 14df dd3d a504 ee3d 1b25 6d3d
000003a0: 57f8 923e bfae a8bd 19a4 7b3e 3b79 543e
000003b0: 251d 6ebe b556 463e e9d2 b7bd 6513 483e
000003c0: bb66 1e3d 84a1 f83d 5db8 083e 67cc 153e
000003d0: 15b5 7cbe 7436 e03d e670 953e 2eb8 95be
000003e0: 49f6 383e 76f8 913e 7262 0cbd b291 a2bd
000003f0: 9763 8a3e a26c 24be 21ee f63d 65b1 5e3e
-0.11051679 -0.03391443 0.23965709 -0.013048591 0.31542543 0.17249954 0.14858271 0.074821614
0.030975454 0.05679011 -0.27333188 0.03386783 0.3005868 0.3067472 0.2246321 -0.31341496
0.280639 -0.26815888 -0.15139984 -0.18363181 -0.07874777 -0.17693453 0.27906138 0.07926242
-0.20941877 0.15957324 0.29797682 -0.07706256 0.20478821 -0.15653886 -0.1112381 0.20940039
-0.28094712 -0.22147824 -0.0615682 -0.14907625 0.052838493 -0.020226512 -0.31786287 -0.051357307
0.11073265 0.26931903 0.30595225 0.21796411 -0.18552321 -0.0057606674 -0.16793786 -0.27189025
-0.31485498 -0.32951802 -0.09899486 0.114976 -0.30186456 0.25636148 0.17301767 0.03238301
-0.0060041663 0.13873447 -0.074014 0.2807977 -0.043425046 -0.028615072 -0.18001151 0.2850936
0.034536745 -0.023808997 0.10895688 0.12659131 -0.26666158 0.31381264 -0.31025136 -0.022490872
-0.1886022 0.010549625 -0.15744916 -0.06569417 0.10342846 0.14558785 -0.100164555 -0.0052029802
0.06518248 0.13976125 -0.31068957 0.20522484 0.23477215 -0.1260189 -0.20741038 -0.19180243
0.22230265 -0.1504014 -0.2757938 -0.14745073 0.08561925 -0.030783022 -0.13306439 0.15666781
0.2501524 0.1803411 0.30840254 0.23174632 0.03702531 -0.042219725 -0.2537816 0.31193486
-0.01526372 0.08180741 0.08285171 0.24421334 -0.24100082 0.004189961 -0.2310118 -0.10008296
0.032676492 0.30638635 0.2744628 -0.023688316 -0.18932174 -0.2790514 0.15727332 0.24533607
0.30228874 0.07348762 0.042693604 0.044860408 0.24621989 -0.046440907 -0.059422128 0.15255377
-0.01087899 0.11960559 -0.31875074 0.029253107 -0.2122845 0.26985607 0.16063373 0.06292398
0.19028427 -0.14859703 0.03628725 0.049271427 -0.29523018 -0.29352462 0.3147413 0.24829686
-0.14981863 0.11122122 0.1957043 -0.3136618 0.13749744 0.3228925 0.21660171 0.15069316
-0.1710595 -0.23568304 0.09406283 0.20706445 0.30021164 0.14245339 0.30896205 -0.016044784
0.006148295 0.115977846 -0.30564985 0.17093207 0.13390973 -0.32399163 0.3129619 -0.08796692
0.25845942 0.095727116 0.050171375 0.14477497 0.30214405 -0.1301026 -0.21995822 0.20433047
-0.04177758 -0.046334933 -0.21544427 -0.08042184 -0.08821991 0.14614163 -0.0051565724 -0.030919068
-0.0074062073 -0.32441565 -0.22498854 -0.28217688 0.2505029 -0.18149978 -0.20824492 0.11946538
-0.2342715 0.3049991 0.2292025 0.22248243 -0.12250659 -0.14895299 -0.2672628 0.08322331
0.28788796 0.29661378 0.17770234 0.25288972 -0.1888633 0.0038017253 0.14078762 0.110564485
-0.06801276 0.11179022 -0.123707004 0.15197277 -0.022431778 -0.27216834 0.043953452 -0.20939514
0.20913301 0.14754942 0.22171792 0.1389629 0.13244072 0.10290852 0.21054082 0.09934493
0.10637177 0.07436601 0.009970267 0.24210693 -0.001579308 0.108335644 0.116219796 0.057896715
0.28705093 -0.08236455 0.24574317 0.20749371 -0.23253305 0.19369014 -0.08975775 0.19538648
0.03867219 0.12140182 0.13351579 0.14628755 -0.24678452 0.10947886 0.29187697 -0.2924208
0.180627 0.28509873 -0.034273572 -0.079379454 0.27029106 -0.16057065 0.12057138 0.21747358

bias f4 [256]
00000000: 7a70 34be 4b82 073e 31f1 903e c890 293d
00000010: 1a76 9fbe 3d01 013e f66c 2ebe 7ace a1be
00000020: 6f46 623d 05c6 22bd e550 42be afb9 8abe
00000030: 97b7 4b3e a700 203e 72a4 0d3d 01e6 15be
00000040: 8f47 fdbd b42c 3c3d db09 87be 210a a9bc
00000050: be60 9a3e d704 c0bd 5ba7 4e3c cf41 323e
00000060: f41f 803e 5810 f2bc 0f23 22bd 8269 3d3e
00000070: 2e51 a2be 176c 403e 220e 83bd 820e 523e
00000080: ee28 f4bd 5737 9a3e bf3c ebbc 1ebf 0b3d
00000090: 91bc 403e 172e 4bbe a557 13bd 2fb1 a03d
000000a0: 7058 aabe 27a3 7abe 8277 41bd e426 a23e
000000b0: f249 74be 6194 75be 7d89 3e3e 443e 67be
000000c0: ec69 f4bd 43fa a23e a0b4 ecbd d603 093e
000000d0: a53a a4be 4c7d 5e3c 3f75 b8bc 3fcb 8dbe
000000e0: aa38 86bc 42dd 1f3e 676a 5cbe de14 ab3e
000000f0: b7ca 9fbe c119 7a3d d654 34bd 5d19 7f3e
00000100: 69b3 e5bd dcff a23d d7de a5be dcea 963e
00000110: 69b4 213e 60bb 07be 6c9b 4ebe 02cd 9a3d
00000120: 60ad 7d3e a8cc a9bd a58b 9bbd eaea 823e
00000130: dd9f 0abe 8c84 2d3d 118f 68be 9fa1 59bb
00000140: 7ab0 90be 6ff5 84be 3a7c a0be bc68 eabd
00000150: 0878 9b3e b774 953e 6a52 6bbe 466c cabd
00000160: 184e b33d 1ae0 8e3d 30a3 2b3e 8c94 563e
00000170: 77da 48be bb96 33be 4abe 9cbe a4bc 7b3e
00000180: 51b5 873e d3b9 5c3e a495 64be eff3 79be
00000190: aa0c 76be 7b99 edbd 7a77 913e 523b 49be
000001a0: a0d3 bdbd aeee 4a3e c031 a13e 5ed1 9f3e
000001b0: 6a03 863e c8d4 9bbe 2956 e03d b489 013d
000001c0: 196b 853e 8db7 533e 961e 1d3e 8e81 a63e
000001d0: 27d6 163e 3277 40be ab5c 3e3e 4a40 84bd
000001e0: 90e1 91be e659 2eb6 bab9 9dbd 1ddd 5b3d
000001f0: 9b12 8b3e 5771 9c3e b755 3d3e d8af d1bc
00000200: 68fc e63d a003 2a3e 14cd 933e 1170 143d
00000210: c25b 8ebe 6e6c 6a3d 8cb1 44be 15ca 68be
00000220: c6b7 ccbc ae0f a8bd 14db d8bd f14a 0f3d
00000230: 5d43 713e 6978 8d3e c221 38be 4247 62be
00000240: ff92 c7bd 8e9c 713d fe2a 78be 4bee a1be
00000250: e25e 8e3e 2aa0 44be 85e7 99be d92c 723e
00000260: 4265 283e 5ca7 9cbc ddce d8bd 8192 c03d
00000270: f43b 93be f7d8 c03d 7f66 46be 73b4 d6bd
00000280: 0318 b3bd a86c a6be 2b0c 3dbe ea36 cb3d
00000290: 7a37 71be a7ad 773e 9a2e 16be 2b2b 203e
000002a0: b0d8 543e 0602 1dbe d29a 2fbe a9ae 3b3e
000002b0: 4fff 47bc ca2f 303e 7b12 9e3e 069e 923e
000002c0: c51c 963e c9b6 fdbd 3d66 9f3e ef93 bbbd
000002d0: 1b4d 4fbe ed58 a43e 2a3c 473e 4777 21be
000002e0: 823e 453e 9c8b 25bd eaf6 533d 52a1 6d3e
000002f0: f83b f9bd 6b67 7f3c 9ced 1b3d 7385 faba
00000300: b5b5 503e a2cc 9ebe 6d1a 8d3e a266 e5bd
00000310: 5524 4fbd ddfb 89be d1cc 8a3e 6748 8e3e
00000320: 6aab 6c3e 9afa 803c 1ad8 a23c 126f e8bd
00000330: 072f a6be b6b3 10be a2af 303d a50b f8bd
00000340: ff47 8a3d 707a 85be 58df a6be 1b2d e33d
00000350: 82ea a6be 1b76 433d 78bf 393e 89a2 6abe
00000360: 2960 26be e02c 963c 152f 9abd a474 85be
00000370: c0ef 59be 9dcc d63d 3ede 633d fd34 9c3a
00000380: 2ffd 553e 9519 afbd d3e2 8f3e 9c98 13bd
00000390: a500 8dbe 3cfc 82be 578d 52be a554 283e
000003a0: 6329 92bd bea1 70be 5a0a 083e e1a8 813e
000003b0: 1fee 9bbe 2d20 31be 4cbd 90be 1a52 4abc
000003c0: 5f12 293e 64e0 3b3e aaa0 58be 5e2e 9dbe
000003d0: d98d 463e 2f02 773e 5341 4bbe 9dd3 01be
000003e0: 5fa1 f53d 8a92 8ebe 1e2b 91bd 853b 97be
000003f0: 5638 37bd 90bd f33d 81df dfbb bd7b 833e
-0.17621031 0.13233297 0.28309014 0.04139784 -0.31144792 0.12598129 -0.17033753 -0.31602842
0.055242952 -0.039739627 -0.18976171 -0.2709479 0.19894253 0.15625249 0.034580655 -0.14638521
-0.12367164 0.04594107 -0.26374707 -0.020634713 0.30151933 -0.09375923 0.012613143 0.17407916
0.25024378 -0.029548809 -0.039584216 0.1849728 -0.3170256 0.18791233 -0.0639918 0.20513347
-0.11921869 0.30120346 -0.02871549 0.03411781 0.18821932 -0.198418 -0.035972256 0.07846295
-0.33270597 -0.244763 -0.047233112 0.31670296 -0.23856333 -0.23982383 0.18607135 -0.22582346
-0.119342655 0.3183156 -0.11557889 0.1338037 -0.32075992 0.013579678 -0.022516845 -0.27694127
-0.016384441 0.15611747 -0.21524964 0.33414358 -0.31209347 0.061059717 -0.04402622 0.24912019
-0.112158604 0.079589576 -0.32396576 0.29476058 0.15791477 -0.13255072 -0.20176476 0.075586334
0.24773169 -0.08290988 -0.075949945 0.2556985 -0.13537546 0.042362735 -0.22710826 -0.0033207906
-0.2825964 -0.259685 -0.31344777 -0.11445758 0.30365014 0.2919061 -0.22980657 -0.09883933
0.087551296 0.06976338 0.1676147 0.20955104 -0.19614588 -0.17537968 -0.3061393 0.2458368
0.2650552 0.21555261 -0.22322708 -0.2440946 -0.24028268 -0.1160154 0.28411466 -0.19651535
-0.0926888 0.19817612 0.3148327 0.31214422 0.2617448 -0.30435777 0.10953934 0.031625465
0.26058272 0.20675488 0.15343699 0.32520717 0.1473013 -0.1879547 0.18590038 -0.06457575
-0.28492403 -2.5980348e-06 -0.0770144 0.053677667 0.27162632 0.3055522 0.18489729 -0.025596544
0.112786114 0.16602945 0.288674 0.036239687 -0.2780438 0.057232313 -0.19208354 -0.22733338
-0.024989974 -0.08206116 -0.10588661 0.03498358 0.23560853 0.27630928 -0.17981628 -0.22097495
-0.09744834 0.058987193 -0.2423515 -0.31627116 0.27806765 -0.19201723 -0.30059448 0.2364992
0.16444877 -0.019122772 -0.10586331 0.094029434 -0.28756678 0.09416383 -0.19375037 -0.10483637
-0.08744814 -0.32504773 -0.18461673 0.099225834 -0.23556319 0.24187337 -0.14666215 0.15641467
0.20785785 -0.15332803 -0.17148903 0.18328346 -0.012206866 0.1720573 0.30873474 0.28636187
0.29318824 -0.12388379 0.3113269 -0.091590755 -0.20244257 0.32099095 0.19456545 -0.15768157
0.19262126 -0.040416345 0.051749147 0.2320607 -0.12169641 0.015588622 0.0380684 -0.0019113257
0.20381816 -0.31015497 0.27559224 -0.11201216 -0.05057176 -0.2694997 0.27109388 0.27789614
0.23112264 0.015744496 0.019878436 -0.1134931 -0.32457754 -0.14131054 0.043136247 -0.12111596
0.067520134 -0.26069975 -0.32592273 0.110925876 -0.3260079 0.047720056 0.18139446 -0.22913565
-0.1624762 0.018331945 -0.075285114 -0.26065552 -0.21282864 0.10488246 0.05563187 0.0011917647
0.20897363 -0.08549801 0.2810274 -0.03603421 -0.27539554 -0.25583065 -0.2056173 0.1643854
-0.071368 -0.234992 0.13285199 0.25324157 -0.3045511 -0.1729743 -0.28269422 -0.012348676
0.16510914 0.18347317 -0.21155038 -0.30699438 0.19390048 0.24121927 -0.19849138 -0.1267838
0.1199367 -0.27846175 -0.07088302 -0.29537597 -0.04473146 0.119013906 -0.0068320637 0.25680342

weight f4 [128, 256]
00000000: bf10 9dbb 5565 1dbd 4765 193a 5feb cb3c
00000010: 1d80 0abd 1b36 f63b 1e1b 26bd beed e6bc
00000020: 6fa9 e53c 9beb 7a3d 91e8 06bc 2d1b 583d
00000030: 44d5 2ebd 57df a83c 754d 1bbb 8414 fe3c
00000040: 16a5 6cbc 9d4f d9bc 9d7e 63bd bb72 c83c
00000050: 33f2 443d ce53 7f3d d212 6ebd 1d00 d0bb
00000060: cfd2 86bd 1b6d 0f3c da52 273c 5d6a 90bc
00000070: 1133 7b3a 69bf 3abd d65b 7a3a 270e 583d
00000080: 810d 14bd 446b 853c 25b5 31bd 0112 403d
00000090: fe00 0f3d e3f8 0a3c 3fa5 183d ecd1 623c
000000a0: a9e3 a6bc 11de 05bd 434e 48bd 89c4 0e3d
000000b0: a0be 1ebc 875e b8bc 8dd7 a53c de43 5dbd
000000c0: 3552 bd3c ceb8 5a3d a28a b73c 19c8 c73b
000000d0: 9d14 343b 7777 59bd 6d5e 69bd 4d6c 063d
000000e0: 2d17 8d3b 86a3 493c 1038 e23c b877 8d3c
000000f0: 6302 a5bc 5a8f 893c bcb4 8fbc a963 433d
00000100: caff 40bd a29a 243d 904f 7abd c4b5 3f3d
00000110: a7d4 29bd 8e79 7b3d 5c92 00bd 7cc5 0f3d
00000120: 1807 023d 91ff 113d 8fc3 fdbb ead4 18bd
00000130: 01d3 03bb e34f e03c e7dd dfbc 8171 c83c
00000140: 0b8a db3c 8c5b 6b3d 9c3c 333d add5 1ebc
00000150: c648 06bd 2c51 f0bc 001b 8b3c 4a58 573d
00000160: 74dd 37bd 8ae3 873c c377 3b3d 2962 5a3d
00000170: 08ca 06bd 36b5 a83c d148 70bd ebca 8abc
00000180: bbbb 7fbd 639d 1fbd 5160 04bd 4639 ddbc
00000190: dce9 163c 606a 08bd 7e46 a6bb b69e f53c
000001a0: b1af 36bd 5308 a23c 90c8 c8bc d2da 0bbd
000001b0: 184e 1b3c 5be4 a93c 268c 9dbc ccd5 f1bc
000001c0: 0e1a 013d bc16 76bd cef2 babc 807b 7f3c
000001d0: 28ea 013d bf5f 403d 2f0e e2bc 1c6d 543d
000001e0: 089e 743d 8631 77bd b79a 90bc 4769 e13c
000001f0: 25cc d73c 41de 2a3d d6b3 d5bb a42d e0bc
00000200: 717b 393d e044 7fbd bf8e 3e3d 82ae 523c
00000210: ca86 97bb d40d 033d a2f9 613c 9fbf 27bc
00000220: 5ea5 72bd 5c5b 85bc 13aa 48bd 41f8 173d
00000230: c379 553d 8f77 04bd 5635 8cbc 2821 15ba
00000240: afb5 7c3d b007 343d db4b d0bc 120c 09bd
00000250: 6c7b b5bc 59e5 54bd 163a 5cbc d002 a1bc
00000260: 5182 71bd 2caf 6d3d 19a1 723b 77ef 56bd
00000270: d626 fe3c 0c79 19bd cdda db3c 9417 f43c
00000280: 59f5 52bd fa5b 363d 3369 79bb ddbe 313d
00000290: 07d4 273d cd9b 403c 862e 3dbd 13a5 50bd
000002a0: 66cb 5b3d 70b4 38bd 2a34 463d 9e0a b23b
000002b0: dad7 1a3d 567d d0bb 915f d9bc 74a6 653d
000002c0: d138 23bd 3259 51bd 20ae 22bd 90f8 903c
000002d0: 45ff 49bd 7900 9b3c e9e4 38bd c217 063d
000002e0: 0103 713d 1e07 353d 10e5 873c 3718 30bd
000002f0: cddc c2bc 6df1 16bd f247 7bbc 50a8 253d
00000300: 18df 31bd 4634 e83c 7336 203c 9d66 d93a
00000310: 6991 9f3a 672a 25bb 21c3 3b3b 2d88 2f3d
00000320: 8c20 13bc b656 55bd ee9d ee3c 1b8b 073d
00000330: ace4 23bd 89b4 d53b 57a4 473d 4b54 51bd
00000340: fabe 9cbc 5de1 463c 8462 373d 7734 5bbd
00000350: 8197 4d3d 1315 0ebd ee76 48bd 7d3e 57bd
00000360: 1e86 abbc 58ee 38bd 7adc 12bd 6a72 113d
00000370: 72ed 603c 1f5b 4fbb 29f2 153d ca77 733c
00000380: 0c58 72bc 4dcc 0a3d b0b3 053d eb92 bcbc
00000390: 83e8 6dbd ee88 0fbd 8e7f 793d 16ef febc
000003a0: f5ba 423d c48d e5bc 40ec 153d 6491 a63b
000003b0: 8d24 133d 679f 3a3d 7bdd 40bc 6fa2 0cbc
000003c0: 25d9 253d ccec 473d 7ba8 8e3c 8fd7 4e3d
000003d0: c1c0 a3bc 884b adbc 17b9 5b3d a20f 28bd
000003e0: d3e0 94bc f948 1e3d 6f23 673c fdd1 8a3b
000003f0: 4080 ea3b 1093 643d b161 de3c f1c7 44bd
-0.004793256 -0.038426716 0.00058515783 0.024892507 -0.033813585 0.007513774 -0.040553205 -0.028189536
0.028034894 0.061259847 -0.008234159 0.05276029 -0.042683855 0.02061431 -0.002369729 0.031015642
-0.014443656 -0.02652722 -0.05554067 0.02446877 0.04808254 0.06233578 -0.058123417 -0.0063476698
-0.06583177 0.00875404 0.010212624 -0.017628843 0.00095824996 -0.0455927 0.0009550428 0.05274787
-0.03614569 0.0162865 -0.043385644 0.04689217 0.034913056 0.008482191 0.037266966 0.013843995
-0.020372229 -0.032682482 -0.04890276 0.0348554 -0.009689003 -0.022506012 0.020244384 -0.0540198
0.023110488 0.0533989 0.022404972 0.0060968515 0.0027478107 -0.053092446 -0.056974817 0.032818127
0.0043057413 0.012307053 0.027614623 0.017269 -0.02014274 0.016791988 -0.017542236 0.047702465
-0.04711894 0.04018653 -0.061111033 0.046804205 -0.041462567 0.06139522 -0.03138958 0.035100445
0.031745046 0.035644118 -0.0077442597 -0.037312426 -0.0020114782 0.027381843 -0.027327491 0.024468185
0.026799222 0.057460353 0.043758973 -0.009694499 -0.032784246 -0.02933558 0.016980648 0.052574433
-0.04488893 0.016587991 0.04576851 0.05331627 -0.032907516 0.02059422 -0.058663193 -0.016942462
-0.062434893 -0.038968455 -0.032318417 -0.02700485 0.00921103 -0.033304572 -0.0050743213 0.029982906
-0.044601146 0.01977936 -0.024509698 -0.03414423 0.009479068 0.020738771 -0.019231867 -0.029520892
0.03151899 -0.060080275 -0.022820856 0.01559341 0.03171745 0.04696631 -0.027594654 0.051861867
0.059721023 -0.060349964 -0.017651899 0.02751602 0.02634246 0.041715864 -0.0065216823 -0.027365513
0.04528374 -0.062321544 0.046522852 0.012858989 -0.0046242224 0.03199561 0.013792427 -0.010238557
-0.059239738 -0.016278915 -0.04899032 0.037101988 0.052118074 -0.032340582 -0.017115276 -0.00056888396
0.061696704 0.043952644 -0.025426796 -0.033458777 -0.022153579 -0.051976535 -0.013441583 -0.019654661
-0.05896217 0.058028385 0.0037022291 -0.052474465 0.031024378 -0.037468955 0.02683773 0.0297964
-0.051503513 0.04452131 -0.0038057088 0.043394912 0.04097369 0.011755896 -0.046186946 -0.050938677
0.053660773 -0.045093954 0.04838959 0.0054333946 0.03780351 -0.0063625975 -0.026534827 0.056066945
-0.039849106 -0.051110454 -0.03971684 0.017696649 -0.04931571 0.018921124 -0.04514018 0.0327375
0.058840755 0.04419624 0.016588718 -0.042991843 -0.023786927 -0.036851335 -0.015336977 0.04044372
-0.04342565 0.028345238 0.009778607 0.0016586367 0.0012174073 -0.0025202276 0.0028650241 0.042854477
-0.008979928 -0.052084647 0.029128041 0.033091646 -0.040013 0.0065217656 0.04874071 -0.05110578
-0.019134033 0.012138692 0.044771686 -0.05351683 0.050193314 -0.034688067 -0.048941545 -0.052549828
-0.020937975 -0.045149177 -0.035854794 0.035509504 0.013728486 -0.0031640006 0.036607895 0.014860103
-0.0147915 0.033886243 0.032642066 -0.023019275 -0.05808307 -0.035042696 0.06091266 -0.031119864
0.047541577 -0.0280217 0.03660226 0.00508325 0.03592353 0.045562174 -0.011771555 -0.008583649
0.04049029 0.04880981 0.017414322 0.05049854 -0.019989373 -0.02115418 0.053643312 -0.041030534
-0.01817361 0.03864381 0.014107569 0.0042364583 0.007156402 0.055804312 0.027146192 -0.04804224

bias f4 [128]
00000000: 2bf0 7bbc 507d 6bbd 2706 acbb d177 59bd
00000010: 8f0a 7d3d 4f42 0c3d 915c 2abb ee31 953c
00000020: 241e 2dbd 4b01 3b3d 2d19 66bd d73a cf3b
00000030: 20f5 333d 9292 643d 18d3 18bd 18a8 84bd
00000040: d9ab 2a3d b1e0 0b3d 004f 28bd 8caa 853c
00000050: 3f91 4cbd a2bb 9fbc 9a74 b93b 5b3d 26bd
00000060: ae3f 45bd 0f68 623d abcb 333d 9e25 583d
00000070: aa63 473d 5dff 8b3c 5c95 00bb fe2e ddbc
00000080: ae93 6ebd a8a7 fc3c 9478 33bd f5b5 423c
00000090: 9806 0abc d608 743b 245f 693d e188 cf3b
000000a0: 6ec3 00bd 4d45 7abb 1703 4f3d 329a 58bb
000000b0: 18d2 073d fcd4 023d 6520 2abc 9bb4 12bd
000000c0: 2031 853c 3c0a 9f3c f0a8 243d 7db4 af3c
000000d0: 39f0 5e3a 8fc3 bb3c 9440 4b3c a078 123d
000000e0: ee82 cebc 88ac ce3c b59c 743c 8b18 64bd
000000f0: 681c abbc 7e71 3ebd 8de1 b53c 9d7e 193c
00000100: 46f7 92bc b212 75bc 528b 03bd 7ef9 673b
00000110: fa83 933c 5b8f 853d 94a9 6e3d 4f75 393d
00000120: 6a4a bd38 49ce 3bbd faf0 bfbc d319 6f3d
00000130: dc1a 04bd 892a 63bd 6ca8 5bbd b578 293d
00000140: 2f46 f9bc 1e59 ed3c 2128 88bc b905 e83c
00000150: af79 333d 0cd8 353d b5e5 45bc 769e 5f3d
00000160: b2a4 21bd 584b 9f3b 5e92 4f3c c5db 0abd
00000170: 6dec 423d 176b 103d 2d4b 603d 650f 523c
00000180: d914 12bc 4ed0 373d 7d87 94bc d617 683c
00000190: c0fe 3a3d e7dc 62bd d22f 5bbd 6353 583d
000001a0: 212a 99bc a363 49bd 6841 26bc 8e85 1abd
000001b0: 9d0b 243c 27d0 d73c f5dc 07bd 7144 47bd
000001c0: 599a 89bd 364a 513d b513 6d3c f792 323d
000001d0: 386f 6e3d c814 07bd ca2d ccbc 09f0 2e3d
000001e0: 7f87 843d 9cb7 0cbd f519 a93c 1f53 05bd
000001f0: 18cf 243d cb73 1ebd 9a4d c03b 6ce7 17bd
-0.015377085 -0.057492554 -0.005249757 -0.05309278 0.061777648 0.034242924 -0.0025995115 0.018212285
-0.042265072 0.04565553 -0.056176353 0.006324153 0.04393494 0.055803843 -0.03731069 -0.06477374
0.041667793 0.03414983 -0.041090965 0.016316675 -0.049943205 -0.01949865 0.005659652 -0.040585857
-0.048156433 0.05527502 0.043895405 0.05277025 0.04867903 0.01708954 -0.0019620275 -0.026999947
-0.058246307 0.030841663 -0.043816164 0.011884202 -0.008424424 0.0037236712 0.0569755 0.006333456
-0.031436376 -0.003818828 0.050540056 -0.0033050892 0.033159345 0.0319414 -0.0103837 -0.03581677
0.016258776 0.01941406 0.040200174 0.021448368 0.0008504424 0.022920398 0.012405533 0.03575957
-0.025208917 0.025228754 0.01492994 -0.05568747 -0.020887569 -0.046494953 0.022202278 0.009368566
-0.017940175 -0.014958071 -0.032115288 0.0035396512 0.018007267 0.065214835 0.05826719 0.04527789
9.026083e-05 -0.045851026 -0.023430336 0.058374237 -0.032252178 -0.055460487 -0.053627416 0.04137488
-0.030428974 0.028973158 -0.016620697 0.028323041 0.04381722 0.04439549 -0.012078692 0.05459448
-0.039463706 0.0048612766 0.012669174 -0.033900995 0.047588754 0.03525838 0.054759193 0.012821053
-0.008916103 0.04487639 -0.018131012 0.014165839 0.045653105 -0.05538645 -0.053512402 0.0528139
-0.018696846 -0.049167287 -0.01014743 -0.037725024 0.010012534 0.026344372 -0.033169705 -0.048649255
-0.067188926 0.051096164 0.014470031 0.043597188 0.058211535 -0.032978803 -0.024924178 0.042709384
0.06471156 -0.03435479 0.02064226 -0.032549974 0.040236562 -0.038684648 0.005868626 -0.037085935

weight f4 [3, 128]
00000000: 29f9 a3bd 604e 9e3c 0cab 47bd 519e 83bd
00000010: 220e 523d b8a3 ad3d c228 67bd 871d cfbc
00000020: dc08 11bd ccdd 8fbd c290 853b 1432 89bc
00000030: a44c ac3b 6cef 693d f508 9d3d 716e aebc
00000040: 288b 123d 548e 4b3d 93b8 6ebd ec20 c03c
00000050: acff 363c 833b afbc 3bea d2bb f650 90bd
00000060: 87dd 36bd f93e ba3d 0198 b53c 16d6 1abd
00000070: 9a50 583d 4b76 c13c 2006 dd3c f0e7 57bd
00000080: e7f2 bdbc 5f84 f3bc 930a bf3c 13b3 273c
00000090: ccfb 8f3d e287 3fbd 6b20 443d 9586 9c3c
000000a0: 8779 443c 17c2 2d3d 26f2 863d e3cc a3bd
000000b0: 7a38 843d dcb2 b63d 42f1 c73d 31ab 96bd
000000c0: f3cc 9ebc 7ee8 233d ddf4 e43c 3b29 9bbd
000000d0: 19ea a9bc e827 9a3c 55fd 7ebc 40ec 373d
000000e0: 1d3e cf3b 138a afbc c652 813d 5a29 943c
000000f0: eb3b a4bc f125 8f3d 7e56 05bd 8bba 3a3d
00000100: 2cd6 723c d65f a3bd c873 1b3d 05e1 353d
00000110: 1b9d 2fbc a8e1 d83d 91af b23d 1bc7 c3bc
00000120: 4899 04bd 6784 6e3d 8b8e b73d 3120 9e3d
00000130: d576 093c 575f aabc 2d17 3cbd 6cc9 12bd
00000140: 12b5 a3bd 068f 753c 5df2 a63c 40c5 23bd
00000150: 9f80 dfbc db82 c8ba 916a 3dbd 2500 773d
00000160: 4475 95bd 8e96 b63c e8e5 693d 8a59 b3bd
00000170: 1ff4 5dbd 9530 8c3c 91ad 113c 2c08 d13d
00000180: 3ee2 99bd 94b3 29bd 8900 4f3d 5be5 b33c
00000190: 4de0 b9bc 1280 9b3d 4714 a8bd 2bec 7fbd
000001a0: 8c61 263d ddc8 a13c 9e07 b3bb f91a 7fbd
000001b0: b6fd 803d fe80 e1bc 4e72 2cb9 8dd3 103d
000001c0: c4bb 98bd 54ae b13d a4be 6bbd 13b7 0ebd
000001d0: 4bfb 673d f3b6 32bd f46e a73d 51f2 db3c
000001e0: 5442 933d fb92 79bd ebbf 8ebd 967e 0ebd
000001f0: a4be 2bbd 60eb a23d ddf5 803d e701 9f3d
00000200: 0488 d3bc b55d abbd e046 473d 1176 4c3d
00000210: c709 3a3c 45d0 7fbd a4ad a4bd da3f 8cbc
00000220: b44b 68bd 3d0a e0ba 0534 92bb 923d 9a3d
00000230: 388c 36bd 1836 833d 1448 b7bd 42be a7bc
00000240: f9ce 9ebd 3ac3 3c3d 4b7d 0c3d 2944 8d3d
00000250: dea6 38bd dadc 833a 75cf 30bd 2bb2 7b3d
00000260: aea6 6c3d 5ee4 01bd cd41 33bc f951 32bc
00000270: efb0 113b 3c82 843d b02d e2bc 6cfb b6bc
00000280: c3a2 76bd 0fb1 1d3d 1bd4 823d d562 a7bd
00000290: 9681 e33d 707b a23d b581 093e 9cfe 80bd
000002a0: 780f 323c a6e4 5e3d 6de2 123d 8ded 2f3c
000002b0: 76a1 133d a084 963d 51f1 b93c d9f2 8bbd
000002c0: 8fd2 bc3d e86a 233c 16a8 a23d b98a d73c
000002d0: 048f ddbc b2b6 413d 7a07 d23d e093 0a3d
000002e0: 196e 9abd 7aea 7abd 9220 bfbc 67e6 9b3d
000002f0: 51ad c63d 3890 9fbd 0260 2cbd 81a8 eebc
00000300: 0c78 a33d 3298 49bc 0f48 96bd 3eed b33d
00000310: a397 613d f301 ee3d 7324 cb3d 45b8 a8bd
00000320: 1998 0a3d 79f6 78bd 974b c7bb 0de3 b9bc
00000330: 2061 4bbd a4ea 373d b1c7 0d3d b04f b53a
00000340: 5238 223c cc93 adba 05a6 a83d 0fb5 2bbd
00000350: 36ec 18bd f0af 7d3d 3842 9bbd 6a6c 2bbd
00000360: ff58 813d d3a3 633d e27b c2bc 4329 153c
00000370: 7a2d 83bd ebdb c0bc c2ce 99bd 41e2 ebbc
00000380: 0def 85bd 9232 e33b 9183 8a3c acbc 40bd
00000390: 1409 af3d 9260 b9bc e29c 3e3c 16a0 f93c
000003a0: 8109 603c b231 303c d996 bbbb 70f0 3a3d
000003b0: 8b9a 283d c328 d03c bd0d 833c 1559 303b
000003c0: 5d69 a6bd 830a 88bd 3670 72bd 1121 9bbd
000003d0: 7300 c83d 8525 a23d ce9b 90bc dedd a7bc
000003e0: 2b06 b83d e9db 583c 5ec8 063d dea3 c23d
000003f0: 77fd 0dbc 6618 c83c e4d9 5cbd 858f 84bc
-0.08006508 0.019324481 -0.048747107 -0.06426681 0.05128301 0.084784925 -0.056435354 -0.025282634
-0.03540884 -0.07024726 0.0040760944 -0.016747512 0.0052581597 0.057113096 0.07667724 -0.021292897
0.03577724 0.04969628 -0.058281492 0.023453198 0.011169355 -0.021390682 -0.006436614 -0.07046692
-0.04464486 0.09094042 0.022167208 -0.037801825 0.052811243 0.023615977 0.02698046 -0.052711427
-0.023187114 -0.029726205 0.023320472 0.010235566 0.07030448 -0.046760447 0.04788248 0.019107142
0.011991865 0.042421427 0.06589155 -0.079980634 0.064560845 0.089208335 0.09762813 -0.07356871
-0.019384837 0.040016644 0.027948791 -0.075762235 -0.02074151 0.018817857 -0.015563329 0.04490304
0.006324543 -0.021428144 0.06314616 0.018086124 -0.020048102 0.069896586 -0.03255319 0.045588057
0.01482157 -0.07977264 0.037952214 0.04440405 -0.010718609 0.105899155 0.08724893 -0.023898652
-0.032372743 0.058231737 0.08962735 0.07720984 0.008390148 -0.020797415 -0.04592054 -0.035836622
-0.07993521 0.014987713 0.02037924 -0.039983034 -0.027283011 -0.0015297787 -0.046244208 0.060302872
-0.07297757 0.022288587 0.05710402 -0.087573126 -0.05418789 0.01711301 0.008891479 0.10206637
-0.075138554 -0.041431025 0.05053762 0.021959951 -0.022689963 0.07592787 -0.082069926 -0.062481087
0.04062037 0.0197491 -0.0054635545 -0.062281583 0.062983915 -0.027527329 -0.0001644578 0.035358
-0.074576885 0.086758286 -0.057554856 -0.034842562 0.056636136 -0.043631505 0.081754595 0.026848944
0.071903855 -0.060931187 -0.06970199 -0.03478869 -0.041929856 0.079550505 0.06296895 0.07764035
-0.025821693 -0.083674826 0.048651576 0.049917284 0.01135487 -0.06245448 -0.08040932 -0.01712029
-0.05671282 -0.0017092895 -0.0044617676 0.07531275 -0.044567317 0.06406802 -0.08949295 -0.020476464
-0.07754321 0.04608462 0.034299176 0.06897766 -0.045081012 0.0010060326 -0.043166596 0.06144921
0.057776146 -0.03171193 -0.010940981 -0.010883802 0.0022230705 0.06470153 -0.027609676 -0.022336684
-0.060213815 0.038498934 0.06388112 -0.081731476 0.11108701 0.079337 0.13428386 -0.06298563
0.010867946 0.054417275 0.035860468 0.010737789 0.036042653 0.07349515 0.022698076 -0.06833429
0.09219848 0.009974219 0.07942216 0.026311265 -0.027045734 0.047293372 0.10255332 0.03383243
-0.07540531 -0.06125877 -0.02333096 0.07612305 0.09701026 -0.077911794 -0.042083748 -0.029133083
0.079818815 -0.012304353 -0.07337963 0.08785485 0.055076253 0.116214655 0.099190615 -0.082382716
0.033836458 -0.06078193 -0.006082009 -0.022691274 -0.049653172 0.044901505 0.03461427 0.0013832953
0.009901123 -0.00132429 0.08234791 -0.041920718 -0.037334643 0.061935365 -0.075809896 -0.04185144
0.06315803 0.055576157 -0.023740713 0.009104076 -0.06405158 -0.023542365 -0.07510139 -0.02879441
-0.06539736 0.0069335187 0.016908439 -0.04705493 0.085466534 -0.022629056 0.011634083 0.030471843
0.013674141 0.010754036 -0.0057247696 0.045639455 0.04116301 0.025410062 0.015997762 0.0026908566
-0.08125565 -0.0664263 -0.059189044 -0.07574666 0.09765711 0.079173125 -0.017652418 -0.020491537
0.089855514 0.013236024 0.03290593 0.095039114 -0.008666388 0.024425697 -0.053918734 -0.016181717

bias f4 [3]
00000000: 3dc9 d53d 3975 6c3e 5872 043d
0.10438774 0.23091592 0.03233561
