spendings_predictor.pt (torch, 148160 bytes, 6 tensors)

weight f4 [256, 9]
00000000: a982 a2be 5df7 58bd 201e 5fbe 05e6 a4be
00000010: 04eb 18bd dc01 a6be c0e3 903e b732 903e
00000020: 3768 8d3e 0c82 36bd b381 f8bd cb5a 6fbd
00000030: 1df8 403e 6baa 8f3e b76a b5bc 4a92 3d3e
00000040: 9a32 2a3b be2e a7be 3c9d 45bd 89e7 85be
00000050: 78e3 223e 71cc 2b3e 99cd 873e 9b20 a6be
00000060: aba8 60be a76b 44be a664 4f3e 65ec 35be
00000070: 7c57 123d f1c3 f6bd c85f 9ebd f2f3 073e
00000080: 936a bd3d ae30 15be b30c a03e 58bf a03e
00000090: 026c 3fbc 5aca e7bd c340 443d f6ec 8c3e
000000a0: c0db 3c3e 27d0 a9be f21c 7bbd 927c e3bd
000000b0: 19ab a3be 3d6a e1bc aac0 88be cf83 853e
000000c0: fb58 d4bc 0763 a4be 4edd a83e 77a2 c33d
000000d0: 80ec 60bd 7518 4d3d b29b fabc 65e3 73be
000000e0: e1ca 65be f329 833e 6d12 aabd f232 02be
000000f0: 38c9 98bc f0a1 f2bd 2b53 a43e d3f5 9abe
00000100: e7fe 1a3e ca34 e7bc ee55 973d 9454 023e
00000110: 45a8 c4bd f283 e0bd f729 f13d e6e8 443d
00000120: b7ff e0bc 88a8 a33d adab 533e 9522 6fbe
00000130: fa8c 5cbe 4d98 87bd 4803 27bd 5815 8e3c
00000140: 3146 2a3d 1bce 93bc 67a6 0c3b 25ae 383e
00000150: 96f3 833e 654c 70be 28cc e4bd 6e5a 90be
00000160: 989e a13e 8865 9b3e e909 34be 8f7a 753e
00000170: e416 013e 4387 983e 4cf2 0a3e faa9 09be
00000180: 944f d43d 5c35 1d3e 646c 81be 393c a7bc
00000190: fb3c 94bc 1671 08be da2c 7c3e 1338 903e
000001a0: 29b0 7b3e 60e6 8d3e 4381 8dbe 8583 873e
000001b0: 6d39 09be 3793 9d3e 9e5c 463e 7b24 313e
000001c0: 879a 33be a085 803e d128 b33c d1b1 0d3e
000001d0: 569c 533e dcf4 8abd e69e 5fbe 89e4 603e
000001e0: cce4 17be ea3f 0ebe 68b3 513d c123 aa3e
000001f0: 6c0a a6be c177 533e 2bc5 ecbd 42e1 47bd
00000200: 13fe 2fbd b3ab 6fbe 9604 cebd 00cb 11be
00000210: 8322 8bbe fa34 3abc e87a 813e df2f 9cbd
00000220: 6d80 bfbd 9bea f9bc 010b 713e 4a43 90be
00000230: 5745 a93e a73b a3bc d9ee 79be 647a 8a3e
00000240: 595b 2a3d 94a6 1a3e d8b1 783b 2019 10be
00000250: 43a8 6a3e 0a66 593e e703 0fbe 2705 80be
00000260: 61d0 7ebe 25e6 ecbc a798 663e 3d48 40be
00000270: 46ea bd3d d2fa fc3d 5ad0 c0bd 7f09 8bbe
00000280: 284a d53d a3fa 913e 6a9a 81be e970 aabe
00000290: 66fc 52bc 0ae9 883d 3e70 e3bd f1c9 8c3e
000002a0: 0f84 d23d d20b a3be 2bc3 1fbe cf29 90be
000002b0: 2896 d63d 000d af3d 054e 8e3e 962b 3bbe
000002c0: 50ed 4ebe 25be 8f3e 7a6c 113e a229 a53c
000002d0: c31e 903e ad9c 08bd d278 b7bd 3555 213e
000002e0: b1d3 3b3e 9fed a23e 0993 bebc 4087 9c3e
000002f0: b9de 6bbe 8272 403d fe23 6ebe 6cbd 22be
00000300: 99c0 443e b5e8 223e 491d 9b3e 6c9d 19bd
00000310: bd90 97bd 1f29 6f3e 7bbf 7dbe 0066 3c3e
00000320: eb78 3ebd 4eae 9b3e 6bb7 acbc bb5c 87bd
00000330: 580a 9bbe 279a 92be a6f9 6fbe b034 5c3c
00000340: cc3b 5cbe e5d1 95be 0c80 653e 5f55 843e
00000350: 0ad8 93bd a9cb 5a3e 3f0a 8dbd c110 2a3e
00000360: fa53 2c3e 98aa 8fbe 8959 913e 1100 97be
00000370: c715 0d3e 9d89 b7bd fa48 07bd 2bdc d5bd
00000380: 4440 0f3e 0a8b 5d3e 0c78 b93d a29e 993d
00000390: 423b 08bd 265a 493e a233 613e b0f9 fbbd
000003a0: 97c5 6bbc 9bb2 62be a34a 80be d0d6 993e
000003b0: 31ac 893d 08e4 803e 0f2c 313c e019 50be
000003c0: 601c 933e deed 86be d4c7 92be 436c 1d3d
000003d0: c649 473e 9946 97be f00e 803e 188f f5bd
000003e0: 49df 90be 0492 fa3d 5991 0f3e d0c6 4f3d
000003f0: 7009 503e a312 803e 41fd 23be b4b1 53be
-0.3174031 -0.05297028 -0.21788836 -0.3220674 -0.037333503 -0.32423294 0.2829876 0.28163692
0.27618572 -0.044557616 -0.12134113 -0.058436196 0.18844648 0.28059706 -0.022145612 0.18512836
0.0025970102 -0.3265285 -0.048245654 -0.2615321 0.15907085 0.16777207 0.26524046 -0.3244675
-0.21939342 -0.19181691 0.20253238 -0.17765959 0.035727963 -0.120490916 -0.077331126 0.13276652
0.09248843 -0.14569351 0.3125969 0.31395984 -0.011683466 -0.113178924 0.047913324 0.27524537
0.18443203 -0.3316662 -0.0613069 -0.11107744 -0.31966475 -0.027516479 -0.2670949 0.26077124
-0.025921335 -0.32106802 0.32981342 0.09552472 -0.054913044 0.050072152 -0.03059182 -0.23817213
-0.22440673 0.25617942 -0.08304296 -0.12714747 -0.018650636 -0.118472934 0.32094702 -0.30265674
0.151363 -0.028223414 0.07389437 0.12727576 -0.09602407 -0.109626666 0.11775582 0.04807367
-0.027465684 0.07991129 0.20670958 -0.23353036 -0.21538153 -0.06620846 -0.040774614 0.017344162
0.041570846 -0.018042615 0.0021461488 0.18035181 0.2577178 -0.23466642 -0.11171752 -0.28193992
0.3156631 0.303509 -0.17581905 0.23972534 0.12606388 0.29790697 0.13568991 -0.13443747
0.10366741 0.15352386 -0.25278008 -0.020414459 -0.018095484 -0.13324389 0.24626485 0.2816778
0.24578919 0.27714825 -0.2763768 0.2646753 -0.13400812 0.3077638 0.19371268 0.17299072
-0.17539416 0.25101948 0.021870049 0.13837363 0.20665106 -0.067849845 -0.21837959 0.21962179
-0.14833373 -0.13891569 0.051196486 0.33230403 -0.32429826 0.20651151 -0.11561044 -0.048798807
-0.042966913 -0.23405342 -0.100594684 -0.14237595 -0.27174768 -0.01136517 0.25289083 -0.07626318
-0.09350667 -0.030507376 0.23539354 -0.28176337 0.33060715 -0.019925905 -0.2440752 0.27046502
0.041591022 0.15102607 0.00379478 -0.14072084 0.22915749 0.21230331 -0.13966332 -0.2500393
-0.24884178 -0.028918335 0.2251917 -0.18777557 0.092732 0.12352528 -0.0941474 -0.27155682
0.10414535 0.28511533 -0.2531312 -0.3328927 -0.012877559 0.06685074 -0.11105393 0.2749782
0.102790944 -0.31844956 -0.15601794 -0.28156897 0.10477859 0.085474014 0.277939 -0.18278345
-0.20207715 0.28074756 0.14201537 0.020161454 0.2814847 -0.033352543 -0.089585915 0.1575516
0.18342473 0.31821916 -0.023263471 0.30571938 -0.2303418 0.046984203 -0.23255917 -0.15892571
0.19214095 0.15909083 0.3029578 -0.037503645 -0.074006535 0.2335553 -0.24780075 0.18398285
-0.046502035 0.3040642 -0.021083554 -0.06609484 -0.3028133 -0.28633234 -0.23435077 0.013440296
-0.21507186 -0.292617 0.22412127 0.25846383 -0.072189406 0.21366753 -0.0688672 0.16607954
0.1682891 -0.2805984 0.28388622 -0.29492238 0.13777839 -0.089617945 -0.03302858 -0.10442384
0.13989359 0.2163507 0.090561 0.0750096 -0.033259638 0.19663295 0.21992353 -0.123034835
-0.014390371 -0.22138445 -0.25056943 0.300467 0.06722296 0.25173974 0.010813727 -0.2032237
0.28732586 -0.26353353 -0.28668082 0.038433325 0.19461736 -0.2954605 0.25011396 -0.119901836
-0.28295353 0.122348815 0.1402029 0.05072671 0.203161 0.2501422 -0.16014577 -0.20673257

bias f4 [256]
00000000: 5aa5 2d3e 54b6 21be eda0 1b3e dabb 1dbe
00000010: 4a79 b23d 9ff2 2abe dd88 0ebe cd71 e1bd
00000020: 2616 8abd 46fd 00be 69db 8abe 39df 233d
00000030: bffe 413e 3ba9 353e 8e6b 4bbe 7db3 a63e
00000040: a4c6 163d b7be 8fbe 5396 cd3d 93e9 463d
00000050: cabc 4bbd 87fc 853d 50d0 71be 213b 623d
00000060: 80d8 43be 404c 9c3e 7652 a5be 867b 503e
00000070: 9639 433e 6294 a53e eb26 0e3e ad69 d53c
00000080: bc87 003d 602d 03bd 2d45 973e ed7e 85bc
00000090: e275 2c3e a5bc 96be 83d5 963e 2e7f 9dbe
000000a0: e06f fbbc b6f5 d0bd a22d 393d 520d 89bd
000000b0: b011 53be d375 53be 95f0 a8be 6fac 353e
000000c0: 8408 aabd c0c0 7a3e 3b68 a33e 7753 453e
000000d0: 064c 85be 7897 1cbd c105 a73e baaa 14be
000000e0: 749f ab3e 8a23 80be 0b5d 04be e2e0 11be
000000f0: 8e88 50be c9a9 40be af3d 8dbe 8e56 5abe
00000100: ad83 34be f6f0 a9be d810 efbd 4b14 f4bd
00000110: 60f9 363e fbc3 99be a69b 463e 3ade 173e
00000120: 1a38 b9bd ce25 d4bd 7ed2 3c3e e668 d73d
00000130: ca0b 87bc 219a 30be 888d 913e 6e80 203d
00000140: 9d5c 693e 20d2 a2bd ba56 863d 0ba2 2abd
00000150: 832b 2f3b efb8 5f3e 9f0c aa3d 48a3 963c
00000160: 2372 bcbd 3834 a9be 757e a13e ac73 0dbe
00000170: f21f 013d 9dee c83d 8f52 ff3d 05d8 823e
00000180: 831d 9b3e 0215 693e 49fd a03e 9355 913e
00000190: e359 613d 802a 103e 8c1b 32be ef74 67be
000001a0: 37fb 093e 049f 8c3b 13da 7f3e 3af6 2b3c
000001b0: c456 863d 0b2e ac3d 0bd4 913d 14d3 97be
000001c0: ead0 433d 9227 4fbd 19c5 883e 7c2f f4bb
000001d0: 191f b33d 08fc a8be b01f 6cbe 65d2 553e
000001e0: 882a 223d e3ba a0be ff3b efbd 6e6f 67be
000001f0: a31a 70be 6fba 8e3d f933 20be a8ec 1c3d
00000200: 38a8 8ebe 05bb 3d3d 4696 6b3e 3c48 a5be
00000210: 8016 103e 0b67 6e3e 377e 9f3e befd 3f3e
00000220: 12c8 6f3e f9e6 033e 3488 843e 621f e9b9
00000230: 05b5 a0be 50d8 1ebe d1d4 663d 0205 f03b
00000240: e6cf 43be e4f3 143e f41e a3be aa65 153e
00000250: eadb 923d 6d64 a7be 68c3 04be c754 a7bd
00000260: 6c5a 28be a425 e5bd 65ed 8a3e fc83 8dbd
00000270: 6499 323e 3b66 03be 8baa 013d 97c6 99be
00000280: 4f22 4fbe fb4e 3ebe 8f16 083d d075 583e
00000290: dc7d f43d d970 073e c2c2 693d 5b68 8bbe
000002a0: e597 ab3e 54fd 15be e966 1dbe 8f08 1f3e
000002b0: 7e2a 0cbe 4971 5a3e 9def f53d beb7 74be
000002c0: 5610 93be e742 6b3e 9316 8ebe 22c7 453e
000002d0: 24b6 8a3e a203 75be e24f 863e e28e 523e
000002e0: 3f37 45be 3e19 113d 5885 6b3e cc7d 1dbd
000002f0: ff2c a1bc 72e6 99be 7cdd 803d e5e7 8b3e
00000300: b087 8ebe c1c5 6dbe 721e a13e e97c 6e3e
00000310: d1b0 983e 02a2 d0bd 06d3 8cbe 85b4 b4ba
00000320: f42d 16be dc06 163e b01b 8dbe ce18 b33d
00000330: b400 9abe 53cf 89be 9a4f 28be 8dc9 90be
00000340: 8129 543d 13ae 48be cbe5 513e 7da0 e3bd
00000350: 950e 993e 43ae ae3d 6519 1bbd 434b 8f3d
00000360: c29a 5a3e b851 8dbe 9347 a6be 7f5a 4fbd
00000370: 9a5d e33d 9d44 6ebe bf8e cebd 0a25 c33d
00000380: 30f7 a3be 4b75 5d3e 1a57 94be 00c9 a8be
00000390: 10a1 813e c3ed 3e3e 5bc8 a23c 1588 a8be
000003a0: 4268 823d a1e2 8ebe 8e3d 4c3e 7687 c83d
000003b0: 9814 923e d59c 9b3e be77 8ebe c693 a2be
000003c0: eba4 103e 3fb5 39ba b412 0b3d 626c 81be
000003d0: 4e49 74be b853 f63d d8f4 903e 9e81 b2bd
000003e0: 2007 3a3e feb2 98be 4fee 86be 4886 f43d
000003f0: d1f6 8a3e 7476 cf3c e8e5 2a3d b353 73be
0.16957608 -0.15792209 0.15198107 -0.15403691 0.0871454 -0.16694115 -0.13919397 -0.11008034
-0.06742506 -0.12596616 -0.27120522 0.040007804 0.18944834 0.17740338 -0.19865248 0.32558814
0.036810532 -0.2807519 0.10038438 0.048562597 -0.04974059 0.065423064 -0.23614621 0.05523217
-0.19125557 0.30526924 -0.32289475 0.2035962 0.19064936 0.3233977 0.13882034 0.026051367
0.031379446 -0.032025695 0.29544964 -0.016295874 0.16841844 -0.294408 0.29459772 -0.30761093
-0.030692995 -0.10203116 0.045209534 -0.06691994 -0.20612216 -0.20650415 -0.3299605 0.1774156
-0.083024055 0.24487591 0.3191546 0.1927012 -0.26034564 -0.03823039 0.32621577 -0.14518252
0.3352009 -0.25027114 -0.12926118 -0.14245942 -0.20364591 -0.18814768 -0.27586123 -0.2132208
-0.17628355 -0.3319165 -0.116731346 -0.11917933 0.17868567 -0.30032334 0.19395313 0.14830866
-0.09043904 -0.10358773 0.18439671 0.10518055 -0.016485114 -0.17246296 0.28428292 0.03918498
0.22789235 -0.079502344 0.065595105 -0.041658442 0.0026728816 0.2184789 0.083031885 0.018388405
-0.09201457 -0.33047652 0.31541792 -0.13813657 0.031524606 0.09811137 0.12466919 0.25555435
0.30295953 0.2276192 0.3144324 0.283856 0.055017363 0.14078712 -0.17393321 -0.226032
0.13474737 0.004291417 0.24985532 0.010495717 0.06559518 0.084072195 0.07120522 -0.29653227
0.047806658 -0.050574847 0.26712874 -0.0074519496 0.08746166 -0.33004785 -0.23058963 0.2088104
0.039591342 -0.31392583 -0.11681365 -0.22601101 -0.23447661 0.06969153 -0.15644826 0.03831163
-0.27862716 0.046320934 0.23006544 -0.32281673 0.14071083 0.23281495 0.31150982 0.18749139
0.23416165 0.12881078 0.25885165 -0.00044464605 -0.31388107 -0.15512204 0.0563553 0.0073248157
-0.19122276 0.14546162 -0.31859553 0.14589563 0.071708515 -0.32693806 -0.12965167 -0.08170467
-0.16440743 -0.1118882 0.27134243 -0.0690994 0.17441326 -0.12831967 0.031656783 -0.30034325
-0.20227931 -0.18584816 0.03322464 0.21138692 0.11938068 0.13226642 0.0570705 -0.27228054
0.33514324 -0.14647418 -0.15371288 0.15530609 -0.13688084 0.21332277 0.12008593 -0.23898217
-0.287234 0.2297474 -0.27751598 0.19314244 0.27092087 -0.23927167 0.2623282 0.20562318
-0.19259356 0.035424463 0.23000085 -0.038450047 -0.019674776 -0.30058628 0.06292245 0.2732536
-0.27837896 -0.23219968 0.3146854 0.23289837 0.298224 -0.101871505 -0.27504748 -0.0013786709
-0.14665967 0.14651054 -0.27560186 0.087449655 -0.3007866 -0.26915988 -0.16436616 -0.2827877
0.051797394 -0.19597654 0.20497815 -0.11114595 0.29893938 0.085293315 -0.037866015 0.06996777
0.21348098 -0.2760141 -0.32476482 -0.050623413 0.111018375 -0.23268361 -0.100858204 0.09528549
-0.32024527 0.21626775 -0.28972703 -0.3296585 0.25318193 0.18645386 0.019870928 -0.32916322
0.06367542 -0.2790728 0.19945356 0.09791462 0.28531337 0.3039309 -0.2782573 -0.31753367
0.14125411 -0.0007084198 0.033953384 -0.25278002 -0.23856089 0.12027687 0.283118 -0.08716129
0.1816678 -0.2982406 -0.2635369 0.119396746 0.2714143 0.025325038 0.041723162 -0.23762397

weight f4 [128, 256]
00000000: ece5 3abd f167 37bd 59e5 623d 43cd 34bc
00000010: 57ee 30bd 206c 973c edb0 3cbd 0419 70bd
00000020: 16b6 2dbd 0dd2 083d f1dd 2fbd daef a0bb
00000030: 6646 c83c dc5c c7bc 0ce5 073d b3b4 5abd
00000040: dcb2 d8bc 171b 13bd a4fe e23b cddc 1ebd
00000050: 59a9 47bc 1df2 913b 6a7e 763b 5101 26bc
00000060: f254 c53c f96a 14bb 4c2f 723d 1195 e1ba
00000070: 8685 63bd c3bb 9abc e63d bcbc c2d4 a3bc
00000080: 17dd da3c 3840 7c3d 4077 4c3d a750 f7bc
00000090: 50e5 4c3d 6a16 763d cfa6 603d 1c6e d43c
000000a0: 2abc 5abc f725 a2bc a2a6 7cbd f39d 0c3d
000000b0: 9a18 233d cead 73bd 5dfd 05bd b36f e63c
000000c0: 7c1e 79bd 6270 3bbd 95a2 8d3c 3974 0b3d
000000d0: 10be f03c 624b 6b3d 650b 683d 85bc 273c
000000e0: a6fb 36bd 2679 73bd 769c e73c 94cd f43c
000000f0: ed02 063d 2f04 30bd 5b21 43bc 45b6 613d
00000100: 529b 7f3d b58e 473d e795 fe3c b36a 9539
00000110: 96e2 413d 8062 733a ece2 633d 391b 4b3c
00000120: 2c93 423d f5c2 113d a230 3f37 b94c 743d
00000130: d899 823c ea87 c83b 3a80 f33c fbb6 803d
00000140: f383 3dbd 880c c83c 56c7 413c 2461 693d
00000150: 8a66 48bd 269d 373d 7181 6bbd c05c 1bbd
00000160: c514 58bd e676 19bd 2c53 ae3c 2b0e 83bc
00000170: 2637 473d 574f 11bd 12df 193d ad46 4c3c
00000180: e006 58bd 9eb0 5cbd 5730 5f3d bebb 143d
00000190: 4991 86bc 9b63 6fbd cbbf 5fbc 3856 7d3d
000001a0: 60e7 2c3c ac36 b33b dd4a 07bb 3379 7dbd
000001b0: 0c2e 793d 7f38 7cbd 73e7 c23b cf96 76bd
000001c0: 5a25 933b f489 b33a 1211 42bd 27e4 1cbd
000001d0: 248f 333c 18a0 71bd 4f70 2e3d 907a b8bc
000001e0: 782e 773d b098 dfbc a57b 9cbc a02c 5dbd
000001f0: ac3f b4bc 3107 233d 5b94 bdbc 283a 593c
00000200: fe27 3fbd 21d9 4ebd 4732 41bd 281b 6abd
00000210: 1e53 653c 27d2 fd3a f7af 47bd 699e 42bd
00000220: f7f7 e13c ad03 caba 10be 7c3d 62be 573c
00000230: 0061 2d3c d279 3a3d 44a3 0abd df4c 6a3d
00000240: e5b1 7ebd 6835 b0bc 208c c1bc ce3b 83bc
00000250: e73e 7e3d fa21 b53c 96bf 71bd 7b7e 7bbd
00000260: ec20 04bd 7c8f ddbc beac 0cbc 9b37 433d
00000270: 02d8 64bd c4cf 12bd 8c58 3dbd 16fc 10bd
00000280: 010b 47bd 4fc8 3bbd 2481 8dbc 500b dfbc
00000290: 7231 15bd 3a7d 6d3d d618 083d 4d72 813c
000002a0: ecc8 a63a a71a 2b3d 499d 4ebd 50e8 823c
000002b0: 6e4a 21bd be95 873c bc5b 5dbd 4055 6f3d
000002c0: 38fb 133c 4f5d 0d3d d530 02bc f148 37bd
000002d0: f7ad 8dbc 04ad 003d 0454 21bd 93af c9bc
000002e0: 79c1 beba 796a 27bd 5a9e 41bd a82e b33c
000002f0: 60d6 debb d045 d63c b4d0 523d 5172 22bd
00000300: ab99 a2bc 1240 f73c 9747 883c c16f 4e3d
00000310: f244 723d 9bf4 92bc e46b a7b6 9a12 533d
00000320: 7a42 f83c 91f1 cbbc f862 b93c c37e 833d
00000330: d7e7 76bd a8c5 a83c 5a15 bcbc 1fcd 113c
00000340: fbae 60bd 68d1 39bd 437e 04bd 0944 bfbc
00000350: 1163 663d 1472 cdba 076c 2c3d 3298 17bd
00000360: 338b f8bc 5871 143c 224a 1f3b f839 3e3c
00000370: 7d97 18bd 9b55 6cbd e2eb 3ebd 822d f8bc
00000380: 201a 7e3b 82cb f63c b447 65bd 5d08 083d
00000390: be16 d13c 51c4 0f3b a617 013d b1db 4c3d
000003a0: 4d56 cc3c 1e02 07bd f388 6dbd cf93 743c
000003b0: 3778 f03c 54f6 6ebd 8e65 7a3d 6042 76bd
000003c0: cdd8 733d 7458 db3c c388 0ebd dae3 8f3c
000003d0: f351 613d 85a1 acbc fea5 c43c e33d d0bc
000003e0: c286 513c bc17 7dbd 2be6 1c3d 9d95 5e3d
000003f0: 4b8e 5dbd b10c 2f3d b4e3 27bc 00f6 e639
-0.045629427 -0.04477686 0.055394504 -0.011035266 -0.04319605 0.018484175 -0.046067167 -0.058617607
-0.04240998 0.033403445 -0.04293627 -0.004911405 0.024447631 -0.024336271 0.03317742 -0.053394984
-0.026452474 -0.035914507 0.006927328 -0.03878479 -0.012186372 0.004453911 0.003761197 -0.01013215
0.024088357 -0.0022646768 0.059127137 -0.0017210563 -0.05554726 -0.01888836 -0.022978734 -0.019998912
0.026716752 0.06158468 0.049918413 -0.030189825 0.050023377 0.06007997 0.05484658 0.02593141
-0.013350526 -0.019793494 -0.06168235 0.03433032 0.039818384 -0.059491925 -0.03271233 0.028129434
-0.060820088 -0.045761473 0.01728944 0.034046385 0.029387504 0.057444938 0.05665149 0.010237818
-0.044673584 -0.059441708 0.028272849 0.029883184 0.032717634 -0.04297274 -0.011909808 0.055105466
0.062403984 0.04872008 0.031077338 0.00028498992 0.04733523 0.0009284392 0.05563633 0.012396627
0.047503635 0.035586316 1.139581e-05 0.05964348 0.015942499 0.006119718 0.02972423 0.06284901
-0.046268415 0.024420038 0.011827311 0.056977406 -0.048925914 0.044827603 -0.05749649 -0.03793025
-0.052754182 -0.037466906 0.021279894 -0.015997967 0.048636578 -0.035476055 0.037566252 0.012468022
-0.05274093 -0.053879373 0.05448946 0.036311857 -0.0164267 -0.0584446 -0.013656567 0.061849803
0.010553211 0.005469164 -0.0020643987 -0.061883163 0.06083493 -0.061577316 0.005948001 -0.060202416
0.0044905366 0.001369773 -0.04737956 -0.03830352 0.01095942 -0.058990568 0.042587575 -0.02251938
0.06034705 -0.027294487 -0.019101927 -0.053997636 -0.022003017 0.03980178 -0.02314203 0.013258494
-0.046669 -0.05050004 -0.04716709 -0.057154804 0.013996867 0.0019364998 -0.048751798 -0.047514353
0.02758406 -0.0015412472 0.061704695 0.013167949 0.010582209 0.045526333 -0.03384711 0.057202216
-0.062181372 -0.021509841 -0.023626387 -0.016019728 0.062071707 0.022110928 -0.0590206 -0.061399918
-0.03225796 -0.027045958 -0.008586107 0.04766045 -0.055870064 -0.035842672 -0.046227023 -0.035396658
-0.04859448 -0.045845326 -0.017273493 -0.027227074 -0.036424108 0.057980753 0.03322681 0.015801573
0.0012724674 0.041773465 -0.050442968 0.015979916 -0.039377622 0.016550895 -0.054042563 0.05843091
0.009032063 0.034512814 -0.007946213 -0.044747297 -0.017294867 0.031415 -0.039386764 -0.024619853
-0.0014553509 -0.040873025 -0.047270156 0.021872833 -0.006800458 0.026156336 0.051468566 -0.039659802
-0.019848665 0.030181918 0.0166357 0.050399546 0.059147783 -0.017938903 -4.989548e-06 0.05153141
0.030305136 -0.024895461 0.0226302 0.06420662 -0.060279693 0.020602062 -0.0229594 0.008899002
-0.054854374 -0.04536572 -0.032346975 -0.023347871 0.05624682 -0.0015674257 0.04209521 -0.03701038
-0.030339813 0.009060226 0.0024305661 0.0116105005 -0.037253845 -0.057698827 -0.046611674 -0.030295137
0.0038772896 0.030126337 -0.055976585 0.0332111 0.02552354 0.0021937082 0.031516694 0.0500142
0.024943495 -0.032961003 -0.057991933 0.014927818 0.029354198 -0.058340386 0.061132006 -0.060121894
0.05953293 0.026775576 -0.034798395 0.017564703 0.055009793 -0.021073112 0.024004932 -0.025420135
0.012788476 -0.061790213 0.038305443 0.0543419 -0.05409078 0.042736713 -0.01024716 0.00044052303

bias f4 [128]
00000000: 0df4 6e3d b89f 153c 318d 003d 94f0 10bc
00000010: e94d 0ebd 8c85 033d efab 66ba d443 75bd
00000020: 796a dfbc c87b 883d 6ad9 193d 0c52 79bd
00000030: c0ee 8c3d 3dcc 823d e219 7dbd ecf1 033d
00000040: 2c07 f1bb 7f1a b9bb 8e62 3b3d 50a0 4dbd
00000050: f998 193d ef67 15bd 8690 0e3d e29e 0f3d
00000060: 8929 5cbd b36f abbc a619 623d 074c 1a3d
00000070: b7a3 4c3d 0d3a cfbb e173 09bd a2cd 893d
00000080: 9a27 cb3c 5bac 253d 22b4 873d f543 5ebd
00000090: d4ba 71bd c795 413d c080 a0bb 822b 5abd
000000a0: c991 b6bc 92c4 943d 19ab 53bd d4bc fc3b
000000b0: 555d 783d dbbb 823d 6d0e 043d aa77 293d
000000c0: 9b75 92bc f636 253d 1390 87bc 7d26 ffbc
000000d0: 899f 673c 1a50 853d 49b3 ff3b eeed 13bc
000000e0: 7a3d 373d c9f9 19bd 5fce 03bc d573 163d
000000f0: 84f0 003d 0736 52bd 6189 043c 6e27 3fbd
00000100: fe4e 303c 1ab5 ce3c 9b52 a93c 0eb7 713c
00000110: b12e 52bd ac74 14bd 9a78 f13c 577b c3bc
00000120: 2cfa 33bd f628 5c3d c7b3 1cbd 1cf6 00bd
00000130: cbcd 2cbd c759 f6bc 75d5 71bd a2d3 723d
00000140: 6915 3abd 7c18 c93b 0b34 8bbc ad32 54bc
00000150: 173a e7bc 0e6b 923d 3b3e 103d 17b8 b1bc
00000160: 808a 4dbd ba34 973d 2b1d 2dbd 41b0 11bc
00000170: 4c68 103d 4af2 62bd cf28 29bd b42b 5a3d
00000180: 6f40 0abb 0ac1 483d 4acc 34bc 901c 3bbd
00000190: 276d 7a3d 3cd2 4ebd b181 1d3d 95f5 3abd
000001a0: 4b62 35bd da42 253d db5a 143d 93d2 fd3c
000001b0: ce6a 80bd ef06 863d f241 32bd 1374 843d
000001c0: e3ee ad3c 0959 5dbd 1dd6 45bd c8ea 523c
000001d0: e094 893d 91b2 32bd 21e6 83bd 01de 58bd
000001e0: 54ab ec3c 1071 4fbd 479e 273b 5519 cf3c
000001f0: 25e3 72bd c04b edbc b67c 84bc f589 dd3b
0.058338214 0.009132318 0.03138465 -0.008846421 -0.03474227 0.032109782 -0.0008799424 -0.05987914
-0.02727245 0.066642344 0.037560858 -0.06086926 0.068814754 0.063866116 -0.061792262 0.032213137
-0.0073555913 -0.0056489105 0.045748286 -0.050201714 0.0374994 -0.036476072 0.034805797 0.03506363
-0.05375055 -0.020927286 0.05520024 0.03767016 0.04996082 -0.006324059 -0.033557776 0.067286745
0.024799157 0.040447574 0.066261545 -0.054264028 -0.059016064 0.04726198 -0.0048981607 -0.05326415
-0.022286313 0.07264055 -0.051676843 0.0077129398 0.060635883 0.06383487 0.03224032 0.041373886
-0.017878344 0.040335618 -0.016548192 -0.031146282 0.014137157 0.06509419 0.007803355 -0.009028895
0.044736363 -0.03759173 -0.008044808 0.03673156 0.031479374 -0.051321056 0.008089394 -0.046668462
0.010761021 0.02523284 0.020669272 0.014753116 -0.05131406 -0.03624408 0.029476453 -0.023862524
-0.043939754 0.05375 -0.038257387 -0.03148471 -0.042188447 -0.030072106 -0.05904146 0.05928386
-0.045430575 0.006136952 -0.01699259 -0.012951535 -0.028225942 0.07149325 0.035215598 -0.021694226
-0.050180912 0.07383104 -0.042264145 -0.00889212 0.035255715 -0.055406846 -0.041298684 0.053264335
-0.0021095534 0.04901222 -0.011035034 -0.045681536 0.061139252 -0.050493464 0.03845376 -0.04564436
-0.044283193 0.040346958 0.03621946 0.030984199 -0.062703714 0.06544291 -0.04351992 0.06467452
0.021232074 -0.05403999 -0.048299897 0.012873359 0.06717849 -0.043627325 -0.06440378 -0.052946094
0.02889029 -0.050644934 0.0025576518 0.025280634 -0.059298653 -0.028966784 -0.016172748 0.0067608305

weight f4 [3, 128]
00000000: bbca adbc bea9 bc3c 3559 343c f03e 953d
00000010: 3c3e 763d 8cb4 d6bc a986 a0bc f790 a5bc
00000020: 50f7 6ebd c848 0dbd bb09 9dbd 3b44 67bd
00000030: 0154 b23d 9210 043d a69c 81bd 1969 84bd
00000040: a61f 5c3d aba5 acbd 09aa 013d 3659 a1bd
00000050: bca9 bb3d 70be 6f3d c9b5 493c e25f 933c
00000060: 3556 8b3c bcb5 a5bd 5000 d83c 816b 97bd
00000070: 46ca 07bb 1e04 0d3d 6102 59bd b020 8c3d
00000080: b727 cd3b 3752 873d a68e 473d 0282 4dba
00000090: fdf2 30bd 3506 233d 7e65 a2bd 08a3 01bc
000000a0: 68c1 89bd 9cd7 8a3d a4f4 59bd 89bd 3f3d
000000b0: 588a 9d3c 8707 c2bc 56b0 7cba 4a0f 133d
000000c0: 0ddf 87bd b306 193d 2ba4 e63c 0658 56bd
000000d0: dbe6 14bd f579 963d 4cbf 98bd b1b4 853c
000000e0: 71ce aebc 0962 593d b004 1ebd 2c3f 543d
000000f0: 4bd7 893d 0aec 883d 5328 d1bc 1e3d 103c
00000100: f6da d0bc 7e9c 803c f640 80bb c827 79bd
00000110: 9e3d 853d 0ff4 b33d 3994 8c3d aa48 8f3d
00000120: 81b9 43bc 9ea5 e8bc 50f6 dd3c 0dd1 b0bc
00000130: 9cbf 91bd 33aa 803d 6e0c d53c 9ecf 9a3d
00000140: 302e a43d c2aa e4bc b1d9 0bbd de46 663d
00000150: 927e 26bd e06a a53c 46aa 1bbd be8a a0bd
00000160: 749f cd3a cd63 e43d 1685 bebc b5bb d33d
00000170: 860e a53d f50f 37bd 89b8 d23d 00e9 043d
00000180: 41b1 e83c 61c4 65bd 1c92 713d 3abd 7dbd
00000190: e255 a63d 76a9 b33d 9c18 a7bd 513d 98bd
000001a0: 2498 81bd 7887 bd3b 2abf d03c dd49 a93d
000001b0: 990f 8ebd 9540 4f3d ae9e a2bd b2ae a43d
000001c0: cc57 6abd 45f9 a8bd 5c7a acbd 3b58 3d3a
000001d0: da41 ec3d 1ffb 303c 9d26 92bd 551f 193d
000001e0: 1cdd 83bd 27f7 293d 904a 813d 921f 93bc
000001f0: 97b0 a3bd bdba fa3c f526 b33d dfd7 533c
00000200: 0e7e 973d 30f5 90bd 9755 b53c 2d19 bd3d
00000210: 2de3 623d c57d e73d 862d 99bd bb83 923d
00000220: 588e 8abc 3210 c03d 5f45 8ebd 76cc 1ebd
00000230: ce6a 353b d7a7 8f3d bafd ff3c 99c4 2fb9
00000240: c87e febc 6c43 b83d 1c7b a8bd fab2 ad3d
00000250: c705 453d 43ef 65bd 0fec 3ebd a7ce 28bd
00000260: 43f5 353a 4694 a93d 313e 193d ae33 b6bc
00000270: 8356 e03d 314c 24bd f4df b23c a951 923d
00000280: beab 42bd 9778 b6bc bc4f 993d b200 033d
00000290: 8bbc 69bc ce0e 97bd 9f62 dd3c 87f3 a53d
000002a0: 7748 c43b a04a 7a3d 7093 803b c888 9a3d
000002b0: 18e5 e83b 38c7 403b f6da be3d 31a7 72bd
000002c0: 432e 8a3d b701 d73c 3d7b 17bd 7bb9 b0bc
000002d0: cc89 863c 32c7 543c 98b6 a63d b815 debc
000002e0: 4ada 2a3d 1c74 c53c 0c2b 573d 7a54 b03d
000002f0: 5ee5 a43c 8f4b a73d 7512 923d 4872 bfbc
00000300: 31bf 393d a632 3f3d a0f7 7e3d 9275 aa3d
00000310: 0999 8f3c b6b6 dabc 2685 b43d 715f ee3d
00000320: 2ee3 983d 0d93 74bd 812b 18bc 7bb0 343b
00000330: 961c b93d 0324 543d a2c5 adbd 523a 56bd
00000340: 5430 bf3c 000c 3dbd 8e10 22bd 2a03 9a3c
00000350: 9ee3 5bbd 053a d43d 415f d03d efe3 52bd
00000360: 346e 35bd d888 f43d 6886 fa3c aa1e c53c
00000370: 5f20 3dbd 1ebe cebc e726 dbbb 1e31 683d
00000380: 4c56 eb3c d800 a43d faa9 e4bc 67c1 7e3c
00000390: b0a6 573c 4f86 97bc 4e33 693d ca77 a4bd
000003a0: e5df e03b ccbf 953d 96f0 21bd e243 913c
000003b0: 21cc ae3c 1743 e33d dc44 b2bd f4db ae3d
000003c0: 67b5 96bd e70f 753c b175 f1bc 964d 38bd
000003d0: 9867 0c3d a9c8 9fbd b5bd c3bc 6d2b 09bd
000003e0: bdcd d93b 60fa 6f3d d84f 9a3d a26c 9c3d
000003f0: c7c9 813d d424 28bc 2eb8 a33c 9829 aa3d
-0.021214833 0.023030158 0.011007597 0.07287395 0.060117945 -0.026209138 -0.019595461 -0.020210726
-0.058341324 -0.034493238 -0.076678716 -0.056461554 0.08707429 0.032242365 -0.063287064 -0.06465358
0.05374112 -0.08430036 0.0316563 -0.07878344 0.09163234 0.058531225 0.012311407 0.017990056
0.01700888 -0.08091304 0.026367337 -0.073935516 -0.002071993 0.034427755 -0.052980784 0.06842172
0.006260838 0.06607478 0.048720025 -0.0007839502 -0.04320048 0.03980084 -0.07929514 -0.007912405
-0.067263424 0.067794055 -0.053211823 0.046811614 0.019231007 -0.02368523 -0.0009639313 0.035903253
-0.066343404 0.037359904 0.028154453 -0.05233004 -0.036352973 0.0734748 -0.07458362 0.016321512
-0.021338673 0.05307201 -0.03857869 0.051818058 0.06730517 0.06685646 -0.025531923 0.008803634
-0.025495034 0.015699621 -0.003913994 -0.060828954 0.06505893 0.08786785 0.06864209 0.069962814
-0.011946083 -0.028399285 0.02709499 -0.021584058 -0.07116625 0.06282463 0.026006903 0.07559131
0.08016622 -0.027913455 -0.034143154 0.056219928 -0.04064805 0.020192564 -0.038004182 -0.07838963
0.001568778 0.11151848 -0.02325682 0.10338537 0.08059411 -0.044692952 0.102891035 0.03244877
0.028404834 -0.056095485 0.05897723 -0.06194804 0.081218496 0.087725565 -0.08158991 -0.0743357
-0.06327847 0.0057839714 0.02548178 0.082660414 -0.06936569 0.0505987 -0.07940422 0.08041133
-0.057212636 -0.082506694 -0.08421776 0.0007222925 0.11535998 0.010802059 -0.07136271 0.037383396
-0.06438658 0.04149547 0.0631305 -0.01795939 -0.07992666 0.030606622 0.08747665 0.012929886
0.0739709 -0.07078016 0.022135539 0.092333175 0.055392433 0.113032855 -0.07479386 0.07154032
-0.016913578 0.09378089 -0.06946825 -0.038769208 0.0027682069 0.07014435 0.031248916 -0.00016762539
-0.031066313 0.08997235 -0.08226606 0.08481403 0.048101213 -0.05613638 -0.04661184 -0.041212704
0.0006941149 0.08280234 0.037412826 -0.02224144 0.10954001 -0.040111724 0.021835305 0.07144482
-0.047527067 -0.022274299 0.07485911 0.031983085 -0.014266144 -0.07375871 0.027024565 0.0810309
0.005990084 0.061106324 0.003923826 0.0754562 0.007107388 0.0029415619 0.09319107 -0.059241477
0.06747105 0.026245935 -0.036982764 -0.021572819 0.016423129 0.012986945 0.08140296 -0.027109966
0.041712083 0.024103217 0.052531287 0.086098626 0.020128902 0.081687085 0.07132427 -0.023369923
0.04534835 0.04667916 0.062247872 0.08323206 0.017529028 -0.026698451 0.088144585 0.11639298
0.07465206 -0.05971055 -0.009287716 0.002757101 0.090386555 0.051792156 -0.08484961 -0.052301712
0.023338474 -0.046154022 -0.03956657 0.018800337 -0.05368387 0.10362629 0.10174418 -0.051486906
-0.04429455 0.119401634 0.030581668 0.024062473 -0.04617345 -0.02523714 -0.006687987 0.056687467
0.028727673 0.080079734 -0.027913082 0.01554904 0.0131623 -0.01849666 0.056933694 -0.080306605
0.006862628 0.07311973 -0.03953608 0.017732564 0.02133757 0.11096781 -0.0870454 0.085380465
-0.073588185 0.014957405 -0.029475065 -0.044995867 0.034278482 -0.07801945 -0.02389417 -0.03348868
0.0066468404 0.058588386 0.0753476 0.076379076 0.06337314 -0.010262687 0.019985285 0.08308715

bias f4 [3]
00000000: ef52 ce3d d9eb c33d 42e8 933c
0.10074412 0.09566469 0.018055085
