spendings_predictor.pt (torch, 145600 bytes, 6 tensors)

weight f4 [256, 7]
-0.36751804 0.16467884 -0.17952032 -0.34534985 -0.21359281 0.009711893 0.07626996 -0.22468644
-0.06030569 -0.20374258 -0.05191973 0.3021684 0.3400964 -0.16589458 -0.30900186 -0.31619087
0.09643867 -0.22928624 -0.11452149 -0.32969612 -0.16848695 0.019513529 0.021660717 0.08662769
-0.11763253 -0.23781823 0.20150608 0.14495757 -0.16874616 0.27705267 0.038047962 -0.30556723
0.14389399 0.37359473 0.075196385 0.12369456 0.09460901 0.3249078 -0.1464185 0.019542687
-0.26839045 0.2310767 0.2902301 -0.218228 0.072672196 0.060905136 -0.30506286 0.2020311
0.37248522 -0.112873875 0.30033168 0.2790041 -0.21952325 -0.013801858 0.22314228 0.2258004
0.11231443 0.3595133 0.32059923 -0.25935695 0.15699768 0.30581817 0.18515348 -0.369339
-0.29284236 0.2395666 -0.2884815 0.2338576 -0.072029024 0.16976449 0.131859 -0.28871122
-0.33360547 0.33520782 0.32070667 -0.34974927 0.14776549 0.21283394 -0.24177368 -0.2872479
0.013314683 -0.15783824 0.35956836 0.14370005 -0.12546222 -0.36936104 -0.0307411 -0.32528663
0.2799973 0.3536719 0.29028475 0.35086855 0.08147719 0.29668477 0.103345044 -0.27934203
0.30149874 -0.012428966 0.07746656 0.15040897 0.2021144 -0.14215213 0.17960273 0.06296467
-0.22827499 -0.29356298 0.0003460723 -0.24452637 -0.23311739 0.18864135 -0.23841697 -0.13454379
-0.34373486 0.2786538 0.20711789 -0.25332972 -0.27277687 0.2492816 0.18707505 -0.01592192
-0.0777438 0.26405138 -0.24915746 -0.29070053 0.075645596 0.1519431 0.23876406 0.3530103
0.14399892 -0.34052557 -0.1169088 -0.19936436 -0.09650539 -0.22190286 0.3124574 -0.36859232
-0.17136012 0.36919785 0.04013058 -0.031129776 0.30198997 -0.06864206 -0.22168964 -0.008188788
-0.120814756 -0.10947499 0.17896943 0.023343252 0.039944258 0.18252909 -0.029664429 0.0391744
-0.36102873 0.33131063 0.18385978 -0.2795029 0.045708917 -0.33666494 0.32760093 0.19715744
-0.23258436 0.30664548 0.33745566 -0.26000974 0.08758475 -0.3479224 0.28596264 0.25996527
-0.30174026 -0.25553522 -0.052714877 0.28890425 0.093888484 0.14072457 -0.32881707 -0.3310565
-0.3161929 -0.027860701 0.02328669 -0.13052373 -0.23275708 -0.11349654 -0.21948066 0.22573067
0.26771593 -0.004169487 0.101491906 0.36375698 -0.17998648 0.27239516 -0.2435089 -0.2164113
-0.35422224 0.11066429 -0.16204922 0.2186386 -0.28055492 -0.22570351 0.12864041 -0.17639843
0.36777878 -0.3323366 -0.36677104 -0.16334146 -0.17628989 -0.08621764 -0.058966223 -0.13888119
0.24262492 0.18567954 -0.25607222 0.08631089 0.079524696 -0.19241533 -0.21010965 -0.114480026
0.057720944 -0.14673778 0.33579493 -0.37625661 -0.114027865 -0.34947965 0.22186181 -0.114233635
-0.27226168 -0.04281525 0.18065451 -0.20294225 -0.009192639 0.021693083 -0.21404043 -0.3223692
-0.29657736 -0.20727901 -0.21072836 -0.15586492 0.08064779 0.0603273 -0.037538297 0.16455114
0.3400648 0.050701275 0.2815067 0.0252844 0.25201714 0.21305989 -0.0910644 0.17493734
-0.23205821 -0.012653266 0.2579775 0.26724964 -0.1127385 0.10204026 -0.3078833 0.15264641
00000000: 532b bcbe 92a1 283e 2dd4 37be b2d1 b0be
00000010: 13b8 5abe a21e 1f3c 6d33 9c3d 3414 66be
00000020: 1903 77bd e5a1 50be c8a9 54bd d1b5 9a3e
00000030: 1e21 ae3e 45e0 29be 7e35 9ebe c5e3 a1be
00000040: a381 c53d 03ca 6abe 3e8a eabd eecd a8be
00000050: d887 2cbe d6da 9f3c d171 b13c dc69 b13d
00000060: 53e9 f0bd 9f86 73be 9c57 4e3e c26f 143e
00000070: cbcb 2cbe d9d9 8d3e 2ed8 1b3d 4f73 9cbe
00000080: f258 133e cf47 bf3e 9000 9a3d 9353 fd3d
00000090: 5ec2 c13d 515a a63e bbee 15be fc17 a03c
000000a0: 796a 89be 5f9f 6c3e 0a99 943e 2977 5fbe
000000b0: 29d5 943d aa77 793d 3331 9cbe 3ee1 4e3e
000000c0: 62b6 be3e 6b2a e7bd 13c5 993e a0d9 8e3e
000000d0: b4ca 60be 3021 62bc 697f 643e 3838 673e
000000e0: 1c05 e63d 2112 b83e 9525 a43e 6fca 84be
000000f0: 00c4 203e 3394 9c3e e098 3d3e 001a bdbe
00000100: 6fef 95be f250 753e d9b3 93be 5e78 6f3e
00000110: f483 93bd bed6 2d3e 0c06 073e f5d1 93be
00000120: 56ce aabe 5ca0 ab3e aa33 a43e 5612 b3be
00000130: d64f 173e 24f1 593e 8593 77be 2812 93be
00000140: d425 5a3c 59a0 21be 5819 b83e 1b26 133e
00000150: 2b79 00be e41c bdbe c2d4 fbbc f88b a6be
00000160: ce5b 8f3e 7c14 b53e 34a0 943e 0ba5 b33e
00000170: 83dd a63d 11e7 973e 91a6 d33d eb05 8fbe
00000180: 0b5e 9a3e dda2 4bbc caa6 9e3d cf04 1a3e
00000190: 14f7 4e3e 5490 11be c7e9 373e 9ff3 803d
000001a0: ebc0 69be e34d 96be 0a71 b539 1f65 7abe
000001b0: 53b6 6ebe 332b 413e 9423 74be d9c5 09be
000001c0: 04fe afbe b6ab 8e3e b616 543e 6fb4 81be
000001d0: 69a9 8bbe ad43 7f3e 9a90 3f3e b06e 82bc
000001e0: 2438 9fbd be31 873e 2223 7fbe b3d6 94be
000001f0: 14ec 9a3d f996 1b3e 917e 743e c4bd b43e
00000200: 7474 133e 5e59 aebe e26d efbd 2c26 4cbe
00000210: 9ea4 c5bd 813a 63be 6bfa 9f3e 22b8 bcbe
00000220: 0779 2fbe 8007 bd3e f75f 243d df03 ffbc
00000230: 6e9e 9a3e 3594 8cbd 9c02 63be 442a 06bc
00000240: ba6d f7bd 6c34 e0bd c343 373e 593a bf3c
00000250: 979c 233d e8e8 3a3e d102 f3bc 5675 203d
00000260: c2d8 b8be 8ca1 a93e bd45 3c3e 011b 8fbe
00000270: 4639 3b3d 595f acbe 4fbb a73e a4e3 493e
00000280: 982a 6ebe a300 9d3e fdc6 ac3e ff1f 85be
00000290: a25f b33d e322 b2be b269 923e 2b1a 853e
000002a0: b37d 9abe 83d5 82be 8eeb 57bd 42eb 933e
000002b0: 9b48 c03d 1a1a 103e b65a a8be 3d80 a9be
000002c0: 09e4 a1be 203c e4bc bac3 be3c 03a8 05be
000002d0: df57 6ebe e070 e8bd 8abf 60be f125 673e
000002e0: 1012 893e 31a0 88bb fdda cf3d 5b3e ba3e
000002f0: 604e 38be 6177 8b3e 665a 79be ec9a 5dbe
00000300: 9e5c b5be f6a3 e23d 3bf0 25be cce2 5f3e
00000310: e5a4 8fbe d21e 67be 50ba 033e caa1 34be
00000320: 804d bc3e 0628 aabe 6ac9 bbbe fc42 27be
00000330: 5685 34be e092 b0bd 9186 71bd df36 0ebe
00000340: ab72 783e c722 3e3e e61b 83be c4c3 b03d
00000350: d8dd a23d 8608 45be fc26 57be 8174 eabd
00000360: cc6c 6c3d 6e42 16be 50ed ab3e b5a4 c0be
00000370: 7187 e9bd ffee b2be be2f 633e 53f3 e9bd
00000380: e265 8bbe 0b5f 2fbd 7ffd 383e 18d0 4fbe
00000390: b99c 16bc b1b5 b13c 6a2d 5bbe 930d a5be
000003a0: fdd8 97be f340 54be 2dc9 57be 0e9b 1fbe
000003b0: ab2a a53d c219 773d c2c1 19bd 1880 283e
000003c0: f91c ae3e 24ac 4f3d a521 903e 3b21 cf3c
000003d0: 6408 813e 5f2c 5a3e f97f babd c622 333e
000003e0: aba0 6dbe a54f 4fbc a015 843e f2d4 883e
000003f0: 71e3 e6bd 7cfa d03d e1a2 9dbe 574f 1c3e

bias f4 [256]
0.151971 0.044740226 0.07009622 0.2779683 0.22805773 -0.3487544 -0.053986683 0.27622488
-0.0654813 -0.19643274 -0.016440134 -0.017388571 0.062597424 -0.13900343 -0.24034765 -0.12385148
0.1723097 0.136603 0.3613432 -0.31312692 0.23828092 -0.22888845 0.25960174 0.11521524
-0.33450162 0.08998013 -0.047662165 -0.28575817 0.014101817 0.35015476 0.26835006 0.28648406
-0.21135117 0.23275043 0.3050391 0.16339843 0.36120245 0.054764982 -0.017711766 0.18318644
-0.106246084 -0.19937754 0.22719762 0.03244268 -0.00379726 -0.116199866 0.31681818 -0.27948898
-0.30332378 0.08090843 -0.10539048 -0.24556461 0.17125377 0.106066704 0.00010427677 0.13471833
-0.16939875 -0.14533895 -0.26362404 -0.36979353 0.32976195 0.091288194 -0.1625562 0.27499723
-0.059020083 0.36666906 -0.14339148 0.10897918 0.13161197 -0.28615895 -0.28088728 0.018393494
-0.04574618 -0.2488076 -0.36449686 0.3410358 0.10048094 0.3490242 0.05136636 0.189715
0.30706206 0.2862052 0.13503505 -0.080274224 -0.3178155 0.13856766 0.106052 0.0027214065
-0.3537755 -0.29325214 0.3370371 0.08206177 -0.24020411 0.3306303 0.123835295 0.3803656
0.036742344 -0.074864715 0.12937336 -0.01293128 -0.15821834 0.25105557 0.3788195 -0.07419891
-0.3671096 0.3662738 -0.2728822 0.068058975 -0.3389162 -0.35136628 -0.020402456 0.14203538
-0.04347569 0.3051227 -0.25707325 -0.05378519 -0.072085984 0.1429027 0.30679908 -0.26538435
0.12420363 -0.36813036 0.14038761 0.28474236 -0.32505262 -0.1745828 0.09982378 -0.2624814
-0.098221615 0.29894164 -0.014867513 0.25154135 -0.34323978 0.29749873 -0.34191296 0.1702048
-0.31974813 -0.14856987 -0.07575778 -0.32651275 0.042650037 0.13396984 0.20112364 0.13801067
-0.23593096 0.3107062 -0.16544043 -0.13291046 0.08280646 0.3736359 -0.074690804 0.17374499
0.09611884 0.18231101 -0.36558178 -0.33803624 0.147532 0.26510018 -0.119707294 0.2558446
0.21231198 0.36726376 -0.21122542 0.10358693 0.1566896 -0.1284992 -0.25893885 0.36236888
-0.25173968 0.033075992 -0.2820607 0.055582054 0.18178597 0.10628999 0.012318543 0.19830896
-0.19176438 -0.28365588 -0.09815497 -0.15636837 0.16213596 0.11205356 -0.08420116 0.30020604
-0.002190787 -0.23309499 -0.25594127 -0.36267233 -0.30131358 0.2847907 -0.25521255 0.26634604
0.13862969 0.24865706 0.02048988 -0.30536708 0.3544738 0.2713198 0.017215183 -0.056098193
-0.27958894 0.32946503 -0.26779693 0.31966734 0.102325186 0.35420477 -0.13724595 0.18408133
0.24431984 -0.13097797 0.16282542 -0.00837311 0.37102014 -0.28390595 0.0048250095 -0.15304528
0.34051865 -0.0116936285 -0.3682022 -0.044319104 0.24145837 0.15050067 0.32417735 -0.35752907
0.2872105 -0.043747794 0.29530185 -0.28318045 0.033085007 -0.32250857 0.3036667 -0.22544712
-0.17193712 0.13290022 0.14629354 0.36176476 0.087967284 -0.17418115 -0.17731443 0.07204343
0.32802737 0.053023916 0.30984062 0.15980177 0.31886983 -0.27616063 -0.26631612 0.30223283
-0.22236641 -0.20241547 0.26000312 0.0030382476 -0.36043954 0.18179135 -0.120227605 0.092520595
00000000: 499e 1b3e 8741 373d 9b8e 8f3d dc51 8e3e
00000010: f787 693e f08f b2be 2421 5dbd 596d 8d3e
00000020: 0f1b 86bd aa25 49be 76ad 86bc 7a72 8ebc
00000030: 1433 803d ea56 0ebe b21d 76be d8a5 fdbd
00000040: f471 303e a8e1 0b3e fa01 b93e 2c52 a0be
00000050: eaff 733e bc61 6abe 85ea 843e f8f5 eb3d
00000060: cc43 abbe 8147 b83d 6739 43bd e54e 92be
00000070: 4f0b 673c 7c47 b33e 2e65 893e 0aae 923e
00000080: 716c 58be 2156 6e3e 162e 9c3e eb51 273e
00000090: 87ef b83e 3f51 603d 4418 91bc 3a95 3b3e
000000a0: 8c97 d9bd a029 4cbe 7ea6 683e 9ee2 043d
000000b0: 74db 78bb 32fa edbd fe35 a23e 2e19 8fbe
000000c0: 414d 9bbe 52b3 a53d f7d6 d7bd 4a75 7bbe
000000d0: 265d 2f3e 8039 d93d 2aaf da38 9af3 093e
000000e0: de76 2dbe bcd3 14be bbf9 86be 9455 bdbe
000000f0: 8fd6 a83e 4ef5 ba3d 2275 26be 70cc 8c3e
00000100: 0bbf 71bd 0cbc bb3e 37d5 12be 7a30 df3d
00000110: 4ac5 063e 6d83 92be 75d0 8fbe f4ad 963c
00000120: 5960 3bbd 6bc7 7ebe 559f babe 3f9c ae3e
00000130: f3c8 cd3d 4db3 b23e 8865 523d a644 423e
00000140: 3d37 9d3e 7d89 923e a146 0a3e d066 a4bd
00000150: b7b8 a2be aee4 0d3e ca31 d93d a059 323b
00000160: 1022 b5be 2525 96be 2090 ac3e 0010 a83d
00000170: 11f8 75be 6048 a93e 5c9d fd3d 48bf c23e
00000180: 247f 163d ac52 99bd 737a 043e b8dd 53bc
00000190: fd03 22be 5b8a 803e a1f4 c13e 99f5 97bd
000001a0: caf5 bbbe 3d88 bb3e 37b7 8bbe 8162 8b3d
000001b0: 6d86 adbe 48e6 b3be 0d23 a7bc b971 113e
000001c0: 9113 32bd 0b39 9c3e 1b9f 83be dc4d 5cbd
000001d0: d1a1 93bd 1655 123e c514 9d3e 75e0 87be
000001e0: 795e fe3d 957b bcbe c5c1 0f3e c0c9 913e
000001f0: 4c6d a6be d5c5 32be 6970 cc3d f663 86be
00000200: 6a28 c9bd e10e 993e df96 73bc 07ca 803e
00000210: 20bd afbe c151 983e 370f afbe 2b4a 2e3e
00000220: 07b6 a3be b322 18be e526 9bbd ae2c a7be
00000230: ceb1 2e3d 642f 093e 5bf3 4d3e ab52 0d3e
00000240: e397 71be e214 9f3e 3769 29be ae19 08be
00000250: 6f96 a93d 344d bf3e 7ef7 98bd 35ea 313e
00000260: f4d9 c43d bdaf 3a3e 892d bbbe 1613 adbe
00000270: a112 173e 36bb 873e 1929 f5bd 10fe 823e
00000280: 5068 593e ff09 bc3e 7a4b 58be 6225 d43d
00000290: 3d73 203e 4b95 03be a293 84be 6a88 b93e
000002a0: 06e4 80be b17a 073d 436a 90be 02aa 633d
000002b0: 1a26 3a3e 91ae d93d b7d3 493c 8111 4b3e
000002c0: e25d 44be 583b 91be 7905 c9bd 081f 20be
000002d0: f806 263e 567c e53d a871 acbd 9bb4 993e
000002e0: 4f93 0fbb 74b0 6ebe bc0a 83be 30b0 b9be
000002f0: c645 9abe 16d0 913e 38ab 82be 825e 883e
00000300: f1f4 0d3e f59f 7e3e 65da a73c 1359 9cbe
00000310: 977d b53e 6eea 8a3e db06 8d3c 38c7 65bd
00000320: 4826 8fbe a4af a83e ae1c 89be 70ab a33e
00000330: de8f d13d 545a b53e 348a 0cbe d17f 3c3e
00000340: fb2e 7a3e 171f 06be b5bb 263e 5e2f 09bc
00000350: 5af6 bd3e 1f5c 91be 1d1b 9e3b e7b7 1cbe
00000360: 7658 ae3e a296 3fbc 0085 bcbe f387 35bd
00000370: dd40 773e d91c 1a3e 93fa a53e 0d0e b7be
00000380: 410d 933e e330 33bd ce31 973e 07fd 90be
00000390: 2584 073d d81f a5be 347a 9b3e 9cdb 66be
000003a0: 4910 30be ff16 083e f9cd 153e 3b39 b93e
000003b0: 3128 b43d 8b5c 32be ea91 35be 818b 933d
000003c0: 34f3 a73e 9b2f 593d 6ea3 9e3e 13a3 233e
000003d0: e842 a33e ed64 8dbe 965a 88be 43be 9a3e
000003e0: 05b4 63be 0046 4fbe 211f 853e 561d 473b
000003f0: 888b b8be 8327 3a3e e439 f6bd 707b bd3d

weight f4 [128, 256]
-0.05362447 -0.026211342 -0.027728107 0.03351752 0.008078752 0.020311812 0.013356848 0.06453878
0.047138333 0.017634965 -0.030903874 -0.048838593 -0.027840674 0.010936211 0.024673825 0.021656573
0.028403819 -0.039467026 0.015045211 0.058796633 0.014317451 0.031519774 0.03779737 0.040270142
0.048171923 -0.039511256 0.056799896 0.05529275 -0.012020699 -0.04303372 -0.022056172 0.014761756
-0.044367082 -0.059633207 -0.042096723 0.032343607 -0.02994191 -0.02674948 0.030152496 -0.023115778
-0.033590235 -0.03845558 -0.0360234 0.048876576 0.029990131 0.0415236 0.049694013 -0.019823322
0.06027662 0.054651972 0.035832234 0.0031761602 -8.578085e-06 0.03192953 -0.020733196 0.026869304
0.04118424 0.0002818313 -0.05664233 0.01167199 -0.023857536 -0.061041273 -0.0033229005 0.0639492
-0.052241486 0.004654055 0.013830416 0.053791776 0.030280294 -0.023258932 0.041409567 0.055517893
-0.0396169 -0.048026487 -0.0049639144 -0.0011894738 -0.038846623 0.007944509 -0.022257501 -0.028778758
0.032039274 0.010329412 -0.023841394 0.049779464 0.045740113 0.058481835 -0.052431703 -0.020099718
-0.0012442097 -0.0044400673 0.036631215 0.05237553 0.04780574 -0.031185867 -0.013869788 0.060794543
0.0075532766 -0.06081996 0.053110544 0.00831688 -0.0031858294 -0.039925613 -0.005115807 0.010462171
-0.05199954 0.03607493 0.016362906 -0.04808263 0.021000588 0.047133695 0.034919254 -0.020499216
0.041044105 0.026171733 -0.031719267 -0.008180581 0.006466853 -0.02477352 0.012348344 -0.012843172
0.03980292 -0.013916403 0.053698406 0.020710457 0.027908893 0.047975577 -0.023964044 0.03655307
-0.041100428 0.025162756 -0.008441591 0.054424614 0.053165887 -0.035735335 -0.0058367006 -0.02948396
-0.033449158 -0.014048126 0.017461343 -0.008251282 -0.059364896 0.011579751 -0.01687348 0.061524227
-0.052266903 0.05740844 0.02581111 0.0038925214 -0.045783196 -0.05763674 -0.029606793 -0.028860688
-0.034757756 -0.04576416 0.011974361 0.021619402 0.013378634 0.038931616 0.058337245 -0.026730731
-0.04536064 0.038222704 0.040710162 0.03416877 -0.048996046 -0.0329581 -0.059251875 -0.006226715
0.03077323 -0.03922465 0.027029095 0.033721156 0.022720432 0.05853023 0.041910242 0.056670345
-0.008727397 0.0069456473 -0.039464448 0.04447797 -0.00077385333 -0.038407385 0.010475554 -0.0048105177
0.057270475 0.031750903 -0.031257994 0.037159383 -0.034476176 -0.044414163 0.03976682 -0.041232266
-0.046055406 -0.013229367 -0.059169084 0.05695286 -0.03681714 0.010625939 -0.06155586 0.012283985
0.033109598 -0.016178155 0.019775433 0.050861847 0.029779833 0.04550687 -0.032175872 0.03884668
-0.036667023 0.02703892 0.024449982 -0.0122853005 0.019773485 -0.052629866 -0.023344913 0.03183047
0.01664371 0.016825518 0.033335984 0.047389507 0.03629931 0.031689197 -0.011512206 0.053981397
0.046159048 -0.009161701 0.04439941 0.058507472 -0.02149547 0.0046704435 -0.018908724 -0.059528306
-0.005110128 0.04784478 0.03123351 -0.004370672 0.017102504 0.027456291 -0.00849661 0.025856448
-0.049979266 -0.05332436 -0.040380273 0.057313427 0.044078622 -0.0017826612 0.005656757 -0.053743314
-0.033657216 0.012877503 -0.000308764 -0.013828977 0.0026168872 0.05148805 0.013820596 -0.05017509
00000000: 55a5 5bbd 2bb9 d6bc 0e26 e3bc ab49 093d
00000010: be5c 043c f564 a63c aed6 5a3c e82c 843d
00000020: 2014 413d 3477 903c 1f2a fdbc fa0a 48bd
00000030: 2012 e4bc cb2d 333c c320 ca3c 2069 b13c
00000040: 20af e83c 2da8 21bd 3080 763c bdd4 703d
00000050: be93 6a3c e11a 013d 6ad1 1a3d 4ef2 243d
00000060: ec4f 453d 8ed6 21bd 02a7 683d a77a 623d
00000070: 77f2 44bc 2044 30bd 25af b4bc 4bdb 713c
00000080: 42ba 35bd f341 74bd 9d6d 2cbd bb7a 043d
00000090: bd48 f5bc ba21 dbbc 5e02 f73c 4d5d bdbc
000000a0: ea95 09bd 9983 1dbd 468d 13bd ce32 483d
000000b0: ddad f53c a714 2a3d f38b 4b3d 8564 a2bc
000000c0: 9ee4 763d bfda 5f3d d2c4 123d 2027 503b
000000d0: 98ea 0fb7 8ac8 023d aad8 a9bc 041d dc3c
000000e0: ceb0 283d c2c2 9339 ca01 68bd e03b 3f3c
000000f0: e170 c3bc 6a06 7abd 05c5 59bb ccf7 823d
00000100: 2bfb 55bd 0b81 983b f898 623c c454 5c3d
00000110: 610e f83c 8489 bebc 149d 293d bb66 633d
00000120: 5545 22bd 6cb7 44bd 55a8 a2bb 1ee8 9bba
00000130: a31d 1fbd b029 023c 5d55 b6bc 6ec1 ebbc
00000140: 9d3b 033d b23c 293c 074f c3bc 8de5 4b3d
00000150: fc59 3b3d a68a 6f3d a0c2 56bd 2aa8 a4bc
00000160: c014 a3ba fc7d 91bb 9d0a 163d b987 563d
00000170: f4cf 433d 8179 ffbc 1b3e 63bc b303 793d
00000180: 7a81 f73b 5a1e 79bd 718a 593d 8643 083c
00000190: 59c9 50bb 0a89 23bd 80a2 a7bb 8769 2b3c
000001a0: 78fd 54bd 4ec3 133d 800b 863c 4bf2 44bd
000001b0: 6d09 ac3c 430f 413d 7e07 0f3d f9ed a7bc
000001c0: dd1d 283d 1a66 d63c 10ec 01bd d807 06bc
000001d0: e5e7 d33b d6f1 cabc b550 4a3c 2b6c 52bc
000001e0: 6308 233d a001 64bc dcf2 5b3d faa8 a93c
000001f0: 31a1 e43c 0a82 443d 3e50 c4bc acb8 153d
00000200: ec58 28bd 2022 ce3c 994e 0abc 58ec 5e3d
00000210: 79c4 593d 375f 12bd cb41 bfbb 5888 f1bc
00000220: fc01 09bd 1c2a 66bc 170b 8f3c 6330 07bc
00000230: 9b28 73bd ffb8 3d3c 413a 8abc d400 7c3d
00000240: d215 56bd 1d25 6b3d d271 d33c ac19 7f3b
00000250: 2987 3bbd 8114 6cbd f289 f2bc 406d ecbc
00000260: 265e 0ebd 3373 3bbd 1c30 443c 2c1b b13c
00000270: 0f32 5b3c c276 1f3d 09f3 6e3d 68fa dabc
00000280: 14cc 39bd 698f 1c3d b3bf 263d 8df4 0b3d
00000290: 14b0 48bd 13ff 06bd 18b2 72bd 7909 ccbb
000002a0: 2418 fc3c 07aa 20bd 1f6c dd3c 321f 0a3d
000002b0: 3320 ba3c 65bd 6f3d 13aa 2b3d 2a1f 683d
000002c0: 5bfd 0ebc 5098 e33b 79a5 21bd 882e 363d
000002d0: 6bdc 4aba 1051 1dbd a8a1 2b3c 8ca1 9dbb
000002e0: 7294 6a3d 3c0d 023d 6208 00bd 7034 183d
000002f0: e436 0dbd a0eb 35bd 88e2 223d 2ae3 28bd
00000300: 98a4 3cbd fdbf 58bc 485b 72bd 6747 693d
00000310: 92cd 16bd 6b18 2e3c ff21 7cbd c442 493c
00000320: ee9d 073d 0d88 84bc 1700 a23c 8354 503d
00000330: d6f4 f33c 6965 3a3d d9ca 03bd b21d 1f3d
00000340: 2930 16bd ba80 dd3c 544b c83c 4948 49bc
00000350: 01fc a13c 6a92 57bd d53d bfbc ab60 023d
00000360: 6458 883c abd5 893c 508b 083d 801b 423d
00000370: 96ae 143d 88cc 013d b19d 3cbc 991b 5d3d
00000380: 4511 3d3d f61a 16bc 28dc 353d 88a5 6f3d
00000390: 4517 b0bc 850a 993b 78e6 9abc f4d3 73bd
000003a0: dc72 a7bb e3f8 433d 6bdd ff3c db37 8fbb
000003b0: 8d1a 8c3c 04ec e03c 5e35 0bbc e7d0 d33c
000003c0: 0fb7 4cbd a56a 5abd c965 25bd 7cc1 6a3d
000003d0: c98b 343d 2fa8 e9ba 515c b93b f321 5cbd
000003e0: 26dc 09bd 2afc 523c 9ae1 a1b9 ef92 62bc
000003f0: 1580 2b3b 22e5 523d c86f 623c 6584 4dbd

bias f4 [128]
-0.0075688716 0.018385649 0.03795933 -0.039639 0.060732346 0.0034283816 0.04577467 0.025185047
0.034399588 0.030916112 -0.030891346 0.0529602 0.036459707 -0.01802521 0.023530068 0.004317601
-0.0054502105 -0.0078648785 0.0031004 -0.015036828 -0.007161888 -0.04406528 -0.002555378 -0.031937234
0.015022113 0.034788065 -0.022733837 -0.055304587 -0.043966655 0.045669477 0.016305408 0.05520014
-0.024120687 -0.055756558 0.04252935 -0.021190448 0.022679424 -0.008543824 -0.014436719 -0.0008556903
0.055751856 0.053378727 -0.03526601 0.0031209271 -0.007067177 -0.009427698 -0.011321421 -0.035872202
-0.021500722 -0.01574879 0.0016771186 -0.034522537 -0.008742288 -0.050585236 -0.039032377 0.020078069
0.020737503 -0.052597508 -0.012278582 -0.035617597 -0.019559972 -0.031127445 -0.025284862 -0.023478128
-0.0346899 0.011457405 0.029346095 0.04029463 -0.024877846 0.037466787 0.014339674 -0.030296983
0.011328646 0.06322933 0.02449658 -0.029589772 -0.047736254 -0.034534916 -0.05979572 -0.009730642
-0.048386555 0.030627657 0.057917677 0.044614088 0.0530343 -0.04239831 0.013876758 0.021939633
-0.02814904 -0.024070939 -0.024186445 -0.0132681765 0.053857334 0.007710739 0.029556625 -0.051718242
0.04298266 -0.026162943 0.048523575 0.041092183 -0.032952115 0.04643848 0.029455591 0.01711426
-0.034617912 -0.009559214 -0.051020306 0.026852049 0.050848015 -0.052980416 -0.05969363 -0.05021011
0.058116127 0.038613018 -0.0011764735 -0.062160168 -0.063462354 0.0023883504 -0.008474524 0.023817847
0.037946843 -0.010635474 -0.021671604 -0.020408383 -0.018156279 0.003720166 -0.010425015 0.045297068
00000000: 4c04 f8bb 809d 963c 3e7b 1b3d 815c 22bd
00000010: 7bc2 783d b3ae 603b 387e 3b3d df50 ce3c
00000020: 95e6 0c3d c943 fd3c d90f fdbc cbec 583d
00000030: c656 153d 9ba9 93bc 21c2 c03c aa7a 8d3b
00000040: ae97 b2bb b1db 00bc 1530 4b3b 075d 76bc
00000050: 45ae eabb cc7d 34bd 2178 27bb 9ed0 02bd
00000060: 4f1f 763c ee7d 0e3d 503c babc 1087 62bd
00000070: 6116 34bd eb0f 3b3d eb92 853c 8b19 623d
00000080: bf98 c5bc fd60 64bd 4133 2e3d 9797 adbc
00000090: 33ca b93c 65fb 0bbc fd87 6cbc 6750 60ba
000000a0: 0f5c 643d a7a3 5a3d 1773 10bd 7888 4c3b
000000b0: c793 e7bb a276 1abc 7b7d 39bc bbee 12bd
000000c0: 4822 b0bc 9b03 81bc c3d2 db3a 8167 0dbd
000000d0: d03b 0fbc 7732 4fbd 6ae0 1fbd c37a a43c
000000e0: b2e1 a93c 7c70 57bd 1b2c 49bc c2e3 11bd
000000f0: 3c3c a0bc fcfe febc 3322 cfbc 3455 c0bc
00000100: ff16 0ebd d7b7 3b3c 3967 f03c fb0b 253d
00000110: a0cc cbbc c676 193d f4f0 6a3c 6131 f8bc
00000120: c99b 393c 617e 813d 0dad c83c 4066 f2bc
00000130: 1787 43bd 7c74 0dbd 5bec 74bd 456d 1fbc
00000140: fb30 46bd dae6 fa3c 163b 6d3d 43bd 363d
00000150: 7f3a 593d daa9 2dbd 575b 633c bfba b33c
00000160: d198 e6bc 6b30 c5bc a722 c6bc c462 59bc
00000170: 8299 5c3d 5eaa fc3b bc20 f23c 82d6 53bd
00000180: 960e 303d ab53 d6bc a8c0 463d 4750 283d
00000190: ccf8 06bd 4736 3e3d da4c f13c 3433 8c3c
000001a0: 83cb 0dbd 409e 1cbc abfa 50bd d4f8 db3c
000001b0: 0246 503d fe01 59bd 4f81 74bd 1ea9 4dbd
000001c0: 2d0b 6e3d af28 1e3d e633 9aba a99b 7ebd
000001d0: 8df8 81bd df85 1c3b bbd8 0abc a51d c33c
000001e0: 266e 1b3d 6940 2ebc a688 b1bc 7b2f a7bc
000001f0: 7abc 94bc 07ce 733b afcd 2abc 6b89 393d

weight f4 [2, 128]
0.04076124 0.03049406 -0.017291205 0.020184724 0.06432663 0.06549774 -0.024380969 0.08401611
-0.06807041 0.04947981 0.02959605 -0.068083815 0.08798652 0.032814648 -0.055390954 0.042312127
0.09199277 0.062281888 0.026877979 0.0567238 -0.051272795 0.019510403 -0.080790915 0.078160875
-0.03488212 0.09998661 0.029346423 -0.049156558 -0.014193073 0.05337783 0.0320813 0.014692605
0.07523048 0.06683577 0.047593243 -0.06778913 0.0334806 0.07472077 0.0041346983 -0.05021589
-0.021980405 -0.046214756 -0.07295187 -0.014142112 -0.0064683375 0.05278401 -0.07077074 0.040747255
-0.0065848236 0.06205717 -0.07339052 0.039997824 -0.052061956 0.0008336994 -0.018003883 -0.08050936
0.08346808 -0.024189707 0.08413811 0.04244888 0.04504846 0.085098445 0.042100117 0.04182728
0.02095121 -0.08506292 -0.0055827927 0.044707738 0.05509777 0.004400944 0.07434577 -0.016370907
0.041775104 -0.0033582796 -0.028183324 0.003387318 0.056672923 -0.02551658 0.040669143 -0.07435913
0.060578827 0.04950188 0.055173825 -0.025665231 0.07194026 0.021405714 0.08442142 0.063639864
-0.022923654 0.020199552 -0.05472034 0.07014653 -0.018757593 0.020790968 0.090441965 0.061899483
-0.00654834 0.05842016 -0.036553223 -0.059745196 0.03361053 0.084655814 -0.0034036385 0.00995634
0.060927927 0.006411236 0.005859778 0.08328219 -0.023059115 -0.033211775 -0.009281424 -0.026670877
-0.08313137 0.050190322 0.050166607 0.0075876326 -0.037582595 -0.025829744 -0.0547645 0.058056388
0.06284973 -0.0692523 0.077020794 -0.008677276 0.014792566 -0.03746814 0.07184347 0.06310116
0.042705897 0.0366093 0.08348838 0.0882794 -0.0021375027 -0.026838383 0.0735988 0.0313851
-0.02409319 -0.075374015 0.05380961 0.08166507 0.05360292 0.097089946 0.08716538 0.010514551
-0.0071449177 0.07779075 -0.08036424 0.07784747 -0.06876642 -0.012325463 0.02328844 0.043943264
-0.07460706 0.09212242 0.071930744 -0.08119306 -0.024105662 0.10563707 0.06693601 0.028328065
-0.04211492 -0.045169733 0.10126426 -0.054982573 -0.046992715 0.0075363335 -0.027422398 0.052997105
0.03544728 0.03779355 0.04429062 0.04047326 0.05179574 0.017020026 0.015576766 -0.047501825
0.102547795 -0.03436863 -0.0077710613 0.08907117 -0.077863745 -0.064491086 0.08044977 0.031219527
-0.07829223 0.059027225 0.00847941 -0.036361665 -0.07020033 0.065556675 0.10098785 -0.020972569
-0.047913656 0.01636504 0.002931827 -0.034648884 0.014713869 0.0117921205 0.07126123 0.054821044
0.09363425 0.05309174 0.058211114 0.004422804 -0.06711735 -0.08356875 0.010573776 0.03717013
-0.017122153 -0.0014336512 0.036553208 0.05188992 -0.039282463 0.02722855 -0.05756016 0.013449502
0.025257763 0.047678046 -0.017735662 0.012821968 -0.039843015 -0.07170218 -0.0019820058 0.08685445
0.061072316 0.07487324 -0.05434367 0.11111086 0.027232982 -0.029975036 0.021600472 0.0007626439
0.05055752 -0.011308999 -0.01697092 0.06400497 0.02712922 -0.020826751 -0.020859025 -0.06295163
0.066216424 -0.0044102357 0.055952344 -0.040232167 -0.07994165 -0.085433275 -0.025239091 -0.037327185
0.019216606 0.001989867 0.007683924 -0.059369173 0.053762633 0.031528726 -0.08323338 0.068927646
00000000: 42f5 263d aece f93c 49a6 8dbc 6f5a a53c
00000010: aebd 833d ae23 863d 99ba c7bc a310 ac3d
00000020: 8068 8bbd 57ab 4a3d 6a73 f23c 876f 8bbd
00000030: 4732 b43d a768 063d a0e1 62bd 7b4f 2d3d
00000040: b566 bc3d 4b1b 7f3d 352f dc3c 3757 683d
00000050: 6c03 52bd 48d4 9f3c b575 a5bd cf12 a03d
00000060: 8ee0 0ebd c8c5 cc3d e967 f03c 6358 49bd
00000070: 108a 68bc b6a2 5a3d ae67 033d 40b9 703c
00000080: 7012 9a3d 31e1 883d 22f1 423d 07d5 8abd
00000090: f422 093d 3407 993d 5d7c 873b 2daf 4dbd
000000a0: 4010 b4bc af4b 3dbd ca67 95bd 51b4 67bc
000000b0: 59f4 d3bb 0c34 583d 40f0 90bd 98e6 263d
000000c0: 81c5 d7bb a92f 7e3d c54d 96bd c2d4 233d
000000d0: eb3e 55bd 9f8c 5a3a e17c 93bc 17e2 a4bd
000000e0: 50f1 aa3d 7e29 c6bc 9a50 ac3d e0de 2d3d
000000f0: bc84 383d 1848 ae3d 2c71 2c3d 1553 2b3d
00000100: dfa1 ab3c 7835 aebd dcef b6bb 761f 373d
00000110: 33ae 613d cb35 903b 9842 983d 481c 86bc
00000120: 5f1c 2b3d 9516 5cbb b7e0 e6bc c4fd 5d3b
00000130: de21 683d 2608 d1bc b094 263d 9949 98bd
00000140: 8121 783d 7cc2 4a3d f3fd 613d e43f d2bc
00000150: 6a55 933d 095b af3c 23e5 ac3d 9e55 823d
00000160: 63ca bbbc 8879 a53c 6f22 60bd fca8 8f3d
00000170: 86a9 99bc d251 aa3c a339 b93d 508a 7d3d
00000180: 7593 d6bb fa49 6f3d d5b8 15bd 61b7 74bd
00000190: 32ab 093d 0760 ad3d 940f 5fbb eb1f 233c
000001a0: 908f 793d 5815 d23b 6103 c03b da8f aa3d
000001b0: 78e6 bcbc 1209 08bd 1d11 18bc e27c dabc
000001c0: c840 aabd 5e94 4d3d 807b 4d3d ada1 f83b
000001d0: 35f0 19bd e698 d3bc be50 60bd 89cc 6d3d
000001e0: 5cb7 803d 26d4 8dbd 14bd 9d3d 222b 0ebc
000001f0: 855c 723c 3178 19bd ab22 933d 2e3b 813d
00000200: 61ec 2e3d a2f3 153d f5fb aa3d d4cb b43d
00000210: 5815 0cbb 2bdc dbbc f8ba 963d aa8d 003d
00000220: 155f c5bc b15d 9abd 7767 5c3d 0440 a73d
00000230: bc8e 5b3d 18d7 c63d c383 b23d 3945 2c3c
00000240: ea1f eabb c250 9f3d 0296 a4bd 7f6e 9f3d
00000250: 69d5 8cbd bdf0 49bc 66c7 be3c dafd 333d
00000260: 96cb 98bd aeaa bc3d 6d50 933d 8c48 a6bd
00000270: 3d79 c5bc 4058 d83d bf15 893d 4210 e83c
00000280: b280 2cbd e603 39bd a363 cf3d 6835 61bd
00000290: 6f7b 40bd 59f3 f63b f0a4 e0bc 7e13 593d
000002a0: 2b31 113d 69cd 1a3d 156a 353d 4ac7 253d
000002b0: c527 543d 956d 8b3c b135 7f3c 4691 42bd
000002c0: 9404 d23d 1fc6 0cbd 63a4 febb f26a b63d
000002d0: 0777 9fbd e713 84bd d9c2 a43d 18c0 ff3c
000002e0: ad57 a0bd 88c6 713d 39ed 0a3c f8ef 14bd
000002f0: 31c5 8fbd 9442 863d b8d2 ce3d aace abbc
00000300: 1c41 44bd fa0f 863c e523 403b fdeb 0dbd
00000310: 7112 713c bd33 413c 68f1 913d 088c 603d
00000320: 50c3 bf3d b976 593d c76e 6e3d 2bed 903b
00000330: d274 89bd 1826 abbd a23d 2d3c b53f 183d
00000340: c243 8cbc 5ae9 bbba d1b8 153d 868a 543d
00000350: a6e6 20bd 680e df3c 34c4 6bbd 4d5b 5c3c
00000360: 5ee9 ce3c 0e4a 433d 614a 91bc 3b13 523c
00000370: 6e32 23bd 98d8 92bd 8ae4 01bb bfe0 b13d
00000380: f726 7a3d 2457 993d 7897 5ebd 178e e33d
00000390: b417 df3c 358e f5bc 79f3 b03c 2aec 473a
000003a0: 6715 4f3d 6149 39bc 9906 8bbc 0a15 833d
000003b0: 193e de3c dd9c aabc 8ce0 aabc c9ec 80bd
000003c0: 7a9c 873d bd83 90bb 492e 653d 7cca 24bd
000003d0: 73b8 a3bd a4f7 aebd 36c2 cebc 64e4 18bd
000003e0: 256c 9d3c 6e68 023b 6dc9 fb3b 172d 73bd
000003f0: 3536 5c3d 4424 013d 4376 aabd f029 8d3d

bias f4 [2]
0.1326043 0.08044903
00000000: 6cc9 073e 76c2 a43d
