spendings_predictor.pt (torch, 145088 bytes, 6 tensors)

weight f4 [256, 6]
000000 d7 ce 87 bd 4d 0d 14 3e 02 bf 9a 3e d8 09 94 3e
       -0.066312484 0.14458199 0.30223852 0.2891376
000010 d3 3b c8 be 87 2c 8b be fe 56 0f 3d 10 72 aa be
       -0.39108142 -0.2718241 0.03499507 -0.33290148
000020 5a a0 44 be ba 8a 9c bd 9d 87 ac 3e 76 9d c5 be
       -0.19201794 -0.076436475 0.33697215 -0.38596696
000030 72 ed df 3d 5c 1e 0b 3e 4d 7a cb be ae 93 aa 3e
       0.10933961 0.135858 -0.39741746 0.33315796
000040 89 72 86 be 09 a8 86 3d 80 d7 c8 be dc d4 22 3d
       -0.26259258 0.06575019 -0.39226913 0.03975378
000050 26 13 87 be 8a fa 56 3e 1f 2d 25 be 50 d5 b3 bd
       -0.26381797 0.2099401 -0.16130494 -0.087809205
000060 d5 7d f3 bd 93 44 c9 be 62 16 12 3d 5c d7 ca be
       -0.11889235 -0.3931013 0.035665877 -0.3961743
000070 c2 80 84 be 95 d0 63 3d d1 50 d1 3d 11 43 5c be
       -0.25879484 0.05561884 0.10220493 -0.21509959
000080 30 4d 85 3e 4f 88 74 3e 01 49 02 be 5e 45 be 3e
       0.26035452 0.23880123 -0.12723161 0.37162298
000090 de 3b 13 3d c7 b9 b2 3e 4c 64 b2 3e 78 f9 b4 be
       0.035945766 0.34907362 0.34842145 -0.3534658
0000a0 cf 6a 71 be 84 31 b3 3d 4b 65 7d be 14 47 91 be
       -0.235759 0.08749679 -0.24745671 -0.2837454
0000b0 58 56 a0 3d 98 be c9 be a7 cd 96 3e 3c fa f2 3d
       0.07828969 -0.39403224 0.29453775 0.11864135
0000c0 e2 e2 3a be 2b cf a3 be ca a2 56 bd fd ab 87 be
       -0.18250611 -0.31993994 -0.05240134 -0.26498404
0000d0 0f 4d c1 3e 81 5d 78 be 9c 68 38 be 2a 9c 19 be
       0.37754104 -0.24254419 -0.18008655 -0.15000978
0000e0 83 dc cd bb e3 a2 7f 3e 51 06 9d be 1d 73 16 bd
       -0.0062823906 0.2496448 -0.30668882 -0.036730874
0000f0 ff 54 02 be 7d 7d 97 bd fd c8 9c be 1d 79 aa 3e
       -0.12727736 -0.07396982 -0.30622092 0.33295527
000100 75 f7 4c be c5 db 1c be 77 92 3d 3e 27 27 88 be
       -0.20016272 -0.1531821 0.18512903 -0.2659237
000110 c1 33 37 be cb 39 47 be 99 61 a6 be 16 70 52 3e
       -0.17890836 -0.1945564 -0.32496336 0.2055057
000120 6f de fa 3d 73 5b cd be a2 f5 ba bd 5e 93 c1 be
       0.12249457 -0.40108833 -0.09128882 -0.37807745
000130 64 e2 63 bd 22 4f 91 bd 26 66 13 bd 8e 36 99 3e
       -0.055635825 -0.070951715 -0.03598609 0.29924434
000140 b8 0f 8e be f4 c0 21 3e 7c a2 e5 bd 8b f6 a7 3e
       -0.27746367 0.15796262 -0.11212632 0.32805285
000150 33 dc 72 be 8d 4d 49 3e f7 f6 56 be c3 2b 51 be
       -0.23716812 0.1965849 -0.20992647 -0.2042685
000160 9e 5a a0 3d c6 47 ac be 77 19 a6 bd 66 e8 b8 be
       0.07829784 -0.3364851 -0.08110326 -0.36114806
000170 c7 b1 a0 3e fa 89 27 3e f8 64 be 3d 3c 26 c1 be
       0.31385633 0.16361228 0.09296602 -0.37724483
000180 42 50 ad be f1 b1 ff 3c 05 4d 4c bd 66 3b d0 3e
       -0.33850294 0.031212779 -0.04987814 0.40670317
000190 60 2f ad 3e 13 05 75 be 61 e5 a1 3e 8b 04 ae be
       0.33825207 -0.23927717 0.31620315 -0.3398784
0001a0 f4 40 21 3d 67 b5 aa be a6 c8 44 be 90 ca c4 bd
       0.039368585 -0.33341524 -0.19217166 -0.09608948
0001b0 f2 ff f9 bd a7 35 b7 bd 26 5d 4a 3e 34 0c a5 bd
       -0.12207021 -0.0894578 0.19762096 -0.08058968
0001c0 99 fe 9d 3e 0a 11 5d 3e 0a 35 4c be 08 17 30 be
       0.30858305 0.21588531 -0.19942108 -0.17196286
0001d0 5f e9 2f be a2 c0 cc bc 28 b1 7e 3e e4 a9 61 bd
       -0.17178868 -0.024994198 0.24872267 -0.05509366
0001e0 cd 95 cb be 0c 96 8f bd 65 75 0d 3d ad 88 83 be
       -0.39762726 -0.07011041 0.034535784 -0.25690213
0001f0 46 22 8b be 88 3d b8 3e 0d b3 01 be de f8 d8 3c
       -0.27174586 0.35984445 -0.12665959 0.026485857
000200 13 3e 59 3e c4 f7 97 be 35 1f 80 3e 18 cb ba be
       0.21215086 -0.29681218 0.2502381 -0.36483073
000210 87 a5 a3 3e e7 ba 41 be 34 65 1e 3e 81 9b bd 3e
       0.31962225 -0.18918954 0.15468293 0.37032703
000220 8c fa 79 3d 10 c3 e7 3d 9b 51 c9 be d0 a5 ce 3e
       0.061029956 0.11316502 -0.39320073 0.4036088
000230 1d 11 7c 3d 0d 7d 7f be 2a 24 bd be 8d 1a 46 bc
       0.061539758 -0.24950047 -0.36941653 -0.012091291
000240 01 77 16 be 15 95 98 be 96 24 ae bd 49 86 bf be
       -0.14693834 -0.2980124 -0.08503072 -0.3740714
000250 7b f2 af 3e 73 f0 a0 be cf a6 45 3e e4 07 16 bd
       0.34364685 -0.31433448 0.19301914 -0.03662862
000260 38 43 a6 3e 13 a6 5c 3e 63 99 c5 bc c8 7d 40 bd
       0.3247316 0.21547727 -0.024120992 -0.046994954
000270 79 02 24 3e 24 3d a6 bc 42 da 26 3d 8d a9 b7 be
       0.16016568 -0.020292826 0.04073549 -0.35871544
000280 4e 22 4a be 07 37 1e 3d 37 ea 22 be 2d 7a 39 be
       -0.19739649 0.038626697 -0.15909658 -0.18113013
000290 e8 16 5e bd 8b f7 1e be a0 b6 c5 bd c2 d5 c6 be
       -0.054221064 -0.15524118 -0.096539736 -0.3883496
0002a0 22 1c 41 3e ac 1b 59 be 28 32 a5 3e 40 ec 53 3e
       0.18858388 -0.21201962 0.3226483 0.20695591
0002b0 9b 40 67 3e d9 18 94 3e cb ab 30 3e a6 8e a1 be
       0.22583239 0.28925207 0.17253034 -0.31554145
0002c0 7f c9 4c be 6d e4 51 3e 9b 2e b4 3e 98 63 8e 3d
       -0.1999874 0.20497294 0.35191807 0.0695259
0002d0 a5 8f c0 bc 80 03 68 3e 19 92 69 be f1 30 48 3e
       -0.023505995 0.22657585 -0.22809638 0.1954992
0002e0 b2 08 f6 bc 14 8d 58 3e c9 b2 cd bc d9 d8 22 3e
       -0.030033443 0.21147567 -0.025109665 0.15903033
0002f0 f7 be 0c 3e 48 ed ac 3e 81 b1 1a bd 70 36 5b be
       0.13744722 0.3377478 -0.037766937 -0.21407485
000300 ff dd 93 be fd ec c4 3e 46 53 7a be 0d c7 e3 3d
       -0.28880307 0.38462058 -0.24445829 0.1112195
000310 1f 0d 59 3d eb bd 8a 3d ce 1a e3 ba d7 0b 45 bd
       0.05299103 0.06774505 -0.0017326714 -0.048106994
000320 f4 af b6 3e 7b cd 3e 3e 7f ce b7 3d d7 e3 ca 3d
       0.35681117 0.18633072 0.08974933 0.09906738
000330 18 7a c8 be fc 99 3c be 70 ef 65 3d da 48 9d 3e
       -0.3915565 -0.18418115 0.05613655 0.30719644
000340 b9 ac 9b be 77 ab 0f be d7 f3 92 be 16 66 92 be
       -0.30405214 -0.14030252 -0.2870166 -0.2859351
000350 23 fa 85 bb 7e 44 b4 bc c8 b5 86 bd 2d 9f c8 3d
       -0.0040886565 -0.022005316 -0.06577641 0.09795985
000360 cc fe 17 3e 61 b8 e9 bc 67 74 57 3e 89 62 b8 bd
       0.14843291 -0.028530302 0.21040498 -0.09003169
000370 01 1f a0 bd 34 fb 59 3c 68 e4 23 bd c2 2f d7 bc
       -0.078184135 0.01330452 -0.040012747 -0.02626789
000380 dd dc 0c 3e cd 59 0e 3e da 93 a7 be 2a 6b 31 be
       0.13756128 0.13901444 -0.3272999 -0.17326036
000390 f5 86 04 3c ef df cb 3b 38 d2 8a 3e a4 45 0f 3e
       0.008088817 0.0062217633 0.2711351 0.1399141
0003a0 c4 02 c2 3d 1b a4 f8 bd ce e9 34 3e 9e d9 13 bd
       0.09473184 -0.12140676 0.17667314 -0.036096208
0003b0 14 fc 29 be 56 50 09 be 7e e4 a4 3d e3 f0 cd be
       -0.16600066 -0.13409552 0.08051394 -0.40222844
0003c0 49 bc 59 be 51 46 34 3d c5 c8 d4 bc 9b c9 af be
       -0.21263231 0.04401237 -0.02597464 -0.343335
0003d0 08 cf ad 3e 70 b5 98 be 95 db 2d 3e c9 c3 8f 3e
       0.33947015 -0.29825926 0.16978295 0.2807906
0003e0 22 e4 b9 be 64 1a 0c 3e 93 a7 36 be d5 d1 94 3e
       -0.36306864 0.13681942 -0.17837362 0.2906634
0003f0 59 fa 9f be 56 23 8e bd a9 09 9c be 0d c8 5d 3e
       -0.31245688 -0.069403335 -0.3047612 0.21658345

bias f4 [256]
000000 ef 60 05 3d a9 70 af be 91 95 a1 be 14 a9 2a 3e
       0.032563146 -0.3426564 -0.31559423 0.1666606
000010 c2 4c a7 3d 3a b6 45 bc f7 e7 47 3e d1 c5 9e 3e
       0.08168937 -0.012067372 0.19522081 0.31010297
000020 e1 81 c6 3e 50 74 6d bd 5b 89 b3 3e c2 68 98 3d
       0.38770965 -0.057972252 0.3506573 0.07441856
000030 99 f8 31 3e c6 a1 b7 3d 15 d9 07 be 8c b7 0d be
       0.17379989 0.08966403 -0.13266404 -0.13839549
000040 21 f8 90 3e e8 99 7a bc f2 e4 73 be 3c a3 24 be
       0.28314307 -0.015295483 -0.23817804 -0.16077894
000050 70 87 6d be dd ce a9 be 47 c3 77 be 0c 98 1d bd
       -0.23196197 -0.33165637 -0.24195586 -0.03847508
000060 91 67 8c be 13 fc 8c bd d2 1a 2d bb f8 7b 68 bd
       -0.27422765 -0.06884017 -0.0026413691 -0.05675885
000070 ca 3e 00 be bd c8 59 3e e5 36 58 be 9a 67 cf be
       -0.12523952 0.21267982 -0.2111469 -0.4050873
000080 d2 5c b4 be bd ec 56 3e ab fa 67 3e 24 d8 4a bd
       -0.35227066 0.20988746 0.22654216 -0.049522534
000090 fc cd f8 bd 91 a1 c0 3e 86 f1 4f 3e 25 e6 bf be
       -0.121486634 0.37623265 0.20306978 -0.37480274
0000a0 3d ea 0e 3e ea c1 b1 bd 5a 7f 1b 3c 5d 71 00 3e
       0.13956542 -0.08679564 0.009490812 0.12543245
0000b0 16 5d cd be 8d 4c f5 bd 04 e2 f4 bd 0b 32 b2 3e
       -0.4011008 -0.119774915 -0.119571716 0.34803805
0000c0 73 0f 95 be 7c bd 46 bd fb f9 8b 3e a4 af 15 be
       -0.2911335 -0.04852055 0.27339157 -0.14617783
0000d0 92 9e 85 bd b2 9b c9 3b 0f 53 26 3e 2a 4d 2b be
       -0.065243855 0.0061525935 0.16242622 -0.16728655
0000e0 81 b1 66 3e b5 46 cc be 1b b7 bc bb c6 ac 8e 3d
       0.2252865 -0.39897695 -0.0057591326 0.06966548
0000f0 cb 66 4e 3e 50 b2 c5 be 45 5e 0f 3e f6 e3 0e 3e
       0.201564 -0.38612604 0.14000805 0.13954148
000100 1e 1c 06 be a1 63 73 3e 99 ef b6 bd 99 b5 c5 3e
       -0.13096663 0.23768474 -0.089324184 0.3861511
000110 5b 75 9f be 48 40 b1 3e bf 76 ac be 32 1e 3e 3e
       -0.31144223 0.34619355 -0.33684346 0.18566206
000120 96 07 5d be b3 fd a5 be 8f 67 56 be 14 f2 5d be
       -0.21584925 -0.3242012 -0.20937942 -0.21674377
000130 a2 5c a5 be 35 53 a7 3c 0d 6d c1 3e 0a d5 a5 3e
       -0.32297236 0.020425418 0.37778512 0.32389098
000140 3b 47 39 3e 81 2e 6d 3e 41 fa 04 be c8 28 24 3e
       0.18093579 0.23162271 -0.1298609 0.16031182
000150 04 fb 78 bd da 27 26 be 3d 73 c9 bd 65 a8 cb be
       -0.060786262 -0.1622614 -0.09836433 -0.39776912
000160 9d f1 e1 bd 3f 93 9a be 44 8f a1 3e b9 61 8e 3e
       -0.11032412 -0.30190465 0.31554615 0.2780893
000170 28 df bf 3e 15 48 b4 be be c3 30 3e 2d 58 ce 3d
       0.37474942 -0.35211244 0.1726217 0.10075412
000180 e4 c2 3e 3d 6f 18 ca bd 09 ab 95 3e 7d e0 a3 3e
       0.04657258 -0.098679416 0.29232052 0.32007208
000190 7b fe 68 bd e6 87 55 bd 95 93 ac be 56 12 21 3d
       -0.056883316 -0.052131556 -0.33706346 0.039324127
0001a0 27 f1 03 3e be 5c c7 bd 8c df b5 3e 13 cb 6d be
       0.12884961 -0.09734486 0.35522115 -0.23221998
0001b0 0f e4 2c 3e dd be 8a 3e 1c 2c 62 3d 41 43 f3 bd
       0.16883872 0.27098742 0.055217847 -0.11878062
0001c0 86 45 3d be 01 ec d9 bc fd b8 75 be d1 7d 35 3d
       -0.18483552 -0.026601793 -0.23996349 0.04430944
0001d0 b6 85 48 3e b4 ea 22 3d 51 4c 27 3c 1b 8b 07 3d
       0.19582257 0.03977461 0.010211066 0.033091646
0001e0 a8 5d 9a be 67 52 fb bd bb 89 a3 be 77 5d 00 3e
       -0.3014958 -0.122715764 -0.31941018 0.12535654
0001f0 32 8f 98 be 50 08 47 3e 0b 36 85 3e 09 a0 92 3e
       -0.2979675 0.19436765 0.26017794 0.28637722
000200 e1 12 aa be 53 42 b8 bc 63 e7 6a 3e 01 fd ac be
       -0.33217528 -0.022492563 0.2293983 -0.33786777
000210 ac 6a cc 3d 28 80 c3 be 10 a6 f9 3d e8 3d 0e 3e
       0.099812835 -0.38183713 0.12189877 0.13890803
000220 ee 35 ab 3d eb 14 49 be ff b7 a1 3d 74 53 3e 3e
       0.08359896 -0.19636886 0.078964226 0.18586522
000230 5e 8f 83 3e 7d e2 93 3e c2 f0 29 3e 0c 90 67 be
       0.25695318 0.28883734 0.16595748 -0.22613543
000240 e8 74 31 be d4 00 c5 be 00 af 93 bb f9 b7 39 be
       -0.17329752 -0.38477194 -0.0045069456 -0.18136586
000250 9f f6 a2 3e 23 18 6a be ee 2e 61 3d 3b a7 09 be
       0.31828782 -0.2286077 0.054976396 -0.134427
000260 0f ff 22 be 43 7f ca 3e 73 de c9 be 8f fe c9 3d
       -0.1591761 0.39550218 -0.39427528 0.09863006
000270 b1 dc ae be c8 3f 16 3e 18 25 be 3e 1a 35 5e bd
       -0.3415275 0.14672768 0.37137675 -0.05424986
000280 f6 45 8a be 8d 9d ec 3d d2 d3 f1 bd 6c 9b 5e be
       -0.270065 0.11553488 -0.1180798 -0.21738976
000290 31 49 da 3d b1 94 c3 3d 91 41 a7 be 08 59 ad bd
       0.106584914 0.09549845 -0.3266721 -0.08464247
0002a0 cb b1 ba be e2 5e 2c 3d 14 fa f7 bd 73 7f ab be
       -0.3646377 0.042082675 -0.121082455 -0.33495674
0002b0 33 83 63 3e a9 06 33 3e 5f df 8f be 38 f8 94 3e
       0.22218017 0.1748301 -0.28100106 0.29095626
0002c0 1b 6b 9b bd 9b e8 c2 3e 57 9e c9 3e 75 04 94 3d
       -0.07588788 0.3806809 0.39378616 0.072274126
0002d0 29 7d 85 be 16 50 26 3e 78 e2 9f 3e 14 66 2a be
       -0.26072052 0.16241488 0.3122747 -0.16640502
0002e0 21 b9 47 bc 7e 56 22 be 14 0d 06 3e f4 a3 f9 bd
       -0.012190134 -0.15853307 0.13090926 -0.12189475
0002f0 ec e9 1b bc c1 b6 97 be 9a 76 87 be a5 a7 ad be
       -0.009516221 -0.29631618 -0.26457673 -0.33916965
000300 02 4a b6 3e 38 98 41 3e c0 95 a4 be 03 2a ac 3e
       0.35603338 0.18905723 -0.321455 0.33625802
000310 10 c5 b8 3e fd c1 f3 bd 30 a2 53 bd 1d 95 09 3e
       0.36087847 -0.11902235 -0.051668346 0.13435788
000320 fd c3 3f be 2e a6 a5 3e 47 5b bc be d7 50 04 be
       -0.18727107 0.32353348 -0.3678839 -0.12921463
000330 15 7e 17 3e 34 46 13 be c2 ea 70 3e c7 86 af be
       0.1479419 -0.14382249 0.23527053 -0.34282514
000340 7f 1c 3e 3e 07 2d d4 3b 6b 7c 26 be 1a 8b c5 3e
       0.18565558 0.0064750942 -0.16258399 0.3858269
000350 67 86 c4 3e 93 46 e2 3d bf 1e 9e 3d ae 8a 62 3e
       0.3838379 0.11048617 0.07720708 0.22123215
000360 63 80 8c 3d 16 33 c1 3e 01 e9 eb bd bc 4e c4 be
       0.06860425 0.37734288 -0.11519051 -0.3834132
000370 02 8e cf 3e f2 b0 ef 3c a3 47 50 be 5e c7 bd 3c
       0.4053803 0.029259179 -0.20339827 0.023166355
000380 5d 4d 8d 3e e1 3d ca 3e ef 7a b9 3e 95 62 8f be
       0.27598086 0.39500335 0.36226603 -0.280049
000390 08 ac 1d be 26 3a 57 3d 0f 4f 56 be 31 ea ef 3c
       -0.15397656 0.05254569 -0.20928596 0.029286476
0003a0 2a 80 8e 3e 15 7c 2c 3d fb 4a 74 3e 5e 12 9b 3e
       0.27832156 0.04211052 0.23856728 0.3028745
0003b0 8c 88 31 bc 58 30 aa 3e db f3 93 3e c9 98 30 3e
       -0.010835778 0.33240008 0.28896984 0.17245783
0003c0 99 83 93 be a8 2b 91 3d f7 9c 5d be 0c 58 ab 3e
       -0.2881134 0.07088405 -0.21641909 0.33465612
0003d0 4c 27 42 bd 5b b5 b9 3c 2e ae c4 be b4 60 11 3e
       -0.047400758 0.022669485 -0.3841414 0.14197046
0003e0 43 4a 8f be 24 f5 11 3e 3d 5b 87 be a9 c9 87 bd
       -0.27986345 0.1425367 -0.26436797 -0.066302605
0003f0 f4 70 a3 be 6e a3 87 3d 99 e5 a7 3e b5 3e ba be
       -0.31922114 0.066229686 0.32792357 -0.36375967

weight f4 [128, 256]
000000 8f 1f e3 3c 70 0c 62 3c f4 47 19 bd c2 35 0b bd
       0.02772501 0.013796911 -0.037422135 -0.033986814
000010 08 0f 6a bd 64 b1 5a bd af 9a 20 bd c3 37 3f 3d
       -0.05714324 -0.05339183 -0.039210018 0.046684038
000020 7e b8 08 bd bc b9 6c bd 1c e3 db 3c ad c0 4a 3d
       -0.03337907 -0.057794318 0.026841693 0.049500156
000030 49 02 64 bb cc f4 78 bd d2 88 0d 3d 9b 10 1f bd
       -0.00347914 -0.06078033 0.03455431 -0.038834196
000040 92 2b aa 3c 8a 65 fc 3a 47 53 11 3c fc 19 df bc
       0.02077273 0.0019256335 0.0088699525 -0.02723407
000050 ab 6c 4d bd 3c 58 4b bd 76 33 39 bc 4f 30 d5 bc
       -0.050152462 -0.049644694 -0.011303773 -0.026024012
000060 14 53 65 3d 1c 4b c4 bc 91 a9 94 3c 00 11 91 bc
       0.055987433 -0.023961596 0.018147262 -0.017708302
000070 3b 58 f3 3c 0c 81 3a 3d ef d2 a6 bb 96 ed 14 bd
       0.029705158 0.045533225 -0.005091063 -0.036359392
000080 50 ca 70 bd c4 61 40 bc 9b c9 50 bc ce b3 54 bd
       -0.05878669 -0.011742059 -0.012743379 -0.051929288
000090 93 80 03 3c f2 10 0c bd d5 5e 93 ba 48 78 91 bc
       0.00802626 -0.034195848 -0.0011243472 -0.01775755
0000a0 bd 9c bc b9 f2 b7 6b bd 1d dc 43 bd 36 19 04 3d
       -0.00035974933 -0.05754847 -0.04781734 0.032250606
0000b0 14 a0 1d bd e7 53 52 bd 1b 28 e9 3c 69 34 25 3d
       -0.03848274 -0.051349547 0.028461507 0.040333185
0000c0 cf bf ac 3b 9a bb 80 bd f8 fa 32 3d bb 06 2f bd
       0.005271889 -0.06285782 0.043696374 -0.042731028
0000d0 5f 7e 9f ba 3d 4b ec bb 29 c9 3d bc f8 33 0d 3d
       -0.0012168399 -0.0072111175 -0.011583605 0.03447339
0000e0 ba 9c 45 3d a6 82 71 ba 27 02 11 3d 2c 01 12 bd
       0.04824517 -0.00092128885 0.035402443 -0.03564565
0000f0 2c cc 1f 3d c4 b4 5d 3d 17 f0 a3 bb 66 1b 97 bc
       0.039013073 0.05412747 -0.005002986 -0.018445682
000100 84 cb 79 3c f3 d0 6c bc 93 30 4a 3d 41 3a c2 3b
       0.015246276 -0.014454114 0.04936273 0.0059273546
000110 bc 88 8d bc a6 ec ce 3c 30 a0 03 3d ac d3 66 bd
       -0.017277114 0.025259327 0.03213519 -0.05635421
000120 50 8a 7a 3c 10 47 74 3c 30 2b 50 bd 71 3e 8d 3c
       0.015291765 0.014909521 -0.050822437 0.017241688
000130 96 b6 62 3d 7a 00 f9 bc 26 ff d2 bb ca 28 55 bc
       0.05534991 -0.030395735 -0.0064391075 -0.013010213
000140 c4 96 5f 3d be 36 2d 3c 65 c4 51 3d 6c 98 5f 3d
       0.05458714 0.010572134 0.051212687 0.05458872
000150 02 df 9f bc 54 40 6c 3d eb 5b 02 bc 63 16 08 bb
       -0.019515518 0.057678536 -0.007956485 -0.0020765297
000160 65 77 73 bd 06 5a 0f 3d c2 34 ef b9 a6 27 b4 3a
       -0.059440035 0.034997962 -0.0004562494 0.0013744726
000170 c7 b5 e9 3c 96 07 50 bd 80 25 0a 3d e6 da dd bc
       0.028529061 -0.050788485 0.03372717 -0.027081918
000180 a2 09 cb 3c 88 22 54 bd f0 48 9e bc 95 ed 55 bd
       0.024784867 -0.051790744 -0.019321889 -0.05222853
000190 11 4a 94 3c 17 d0 5e bd 2a 7e 33 3c 27 c7 15 3c
       0.018101724 -0.05439767 0.010955373 0.00914172
0001a0 22 3d f6 bc b5 1e 05 3d 9b 4d 93 bc 48 db 49 bd
       -0.030058447 0.032499988 -0.017981341 -0.04928139
0001b0 7a 12 23 3c d0 59 04 bc c1 d8 18 bd 8b c9 5e 3c
       0.009953136 -0.008078054 -0.037316088 0.013597856
0001c0 38 7f 61 3d dc 36 d4 bc d8 2f c8 3b ae 9b 20 3d
       0.055052966 -0.025905065 0.006109219 0.039210968
0001d0 dc 59 9b bb 00 af ba bc 94 63 b6 3c 5d a6 62 3c
       -0.0047409367 -0.022788525 0.02226428 0.013833609
0001e0 39 61 59 3c cf c8 8d 3c 8f 06 4d bd 3c ae 31 3d
       0.013267809 0.017307667 -0.050055083 0.043379053
0001f0 40 55 fb 3c 8d 5f 47 3d 5a 0e 85 bd 0b c7 70 bd
       0.030680299 0.04867511 -0.06496878 -0.058783572
000200 d0 92 0d bd a8 c5 fd bc 5e 6e 06 bb 76 e6 65 3c
       -0.03456384 -0.030978039 -0.0020512561 0.014031997
000210 01 46 05 3b b1 87 31 bd 4c db 0c bd 10 03 02 3d
       0.0020335915 -0.043342296 -0.034388825 0.031741202
000220 b9 36 38 3d ad 67 80 3b 71 4a 55 3d 13 70 36 bd
       0.044974063 0.003918609 0.052072946 -0.044540476
000230 04 02 33 3d 5a fd 07 3d 9d 54 bf 3b 70 a6 11 bd
       0.043703094 0.0332006 0.005838944 -0.035559118
000240 cb b8 f1 bb 62 9d 31 3d e1 a5 5f bd 30 9b ac 3c
       -0.0073767654 0.043362983 -0.054601554 0.021070093
000250 38 d8 1d 3c f7 65 2c bd 7a db a6 bb 60 94 4a bd
       0.00963407 -0.04208943 -0.0050920816 -0.049457908
000260 61 14 2a 3d c6 c2 ed bc ef 6e 69 3d 6e 3d 28 3d
       0.04152334 -0.02902354 0.05699056 0.04107421
000270 76 66 47 bb 21 2c 8b 3c 8e 82 50 bd e3 6c bc bc
       -0.0030426062 0.016988816 -0.050905757 -0.02300114
000280 b8 71 e7 3c c2 71 dc 3c 0b 6e 29 3d 65 2b 57 bd
       0.028252468 0.026909713 0.04136471 -0.05253162
000290 eb 1a 4e 3c 49 39 86 3b 9c 9c 69 3d 0d 43 1e 3d
       0.01257966 0.0040961844 0.05703412 0.038638163
0002a0 33 19 23 bd be 41 24 3d 7d b0 1d 3d b5 be a7 bc
       -0.039818954 0.04010176 0.03849839 -0.020476678
0002b0 3a bb eb 3c 0a 1b 8b bb a8 13 33 bd c6 46 59 3c
       0.0287758 -0.0042451667 -0.043719918 0.013261503
0002c0 5f dc ec bc 64 d3 58 3a 5d 9c dd 3c 8d c0 78 bd
       -0.028913675 0.0008271246 0.027052099 -0.060730506
0002d0 c4 18 06 3d 7b d5 31 bd 1b 20 c2 3c 18 37 83 bc
       0.032738462 -0.04341648 0.02369695 -0.016017482
0002e0 ed 30 11 bd 04 be cc 3c a6 96 37 3d ae 4b 85 bc
       -0.03544705 0.02499295 0.044821404 -0.016271438
0002f0 83 26 70 bd 91 a5 2d 3d aa e3 26 bd 28 35 a3 3c
       -0.058630478 0.042394225 -0.04074446 0.019922808
000300 f3 53 99 3c 99 57 24 bc 80 3a ea ba ab 17 3f bd
       0.018716788 -0.0100306505 -0.0017870218 -0.04665343
000310 24 77 b9 bc 36 03 a9 3c 58 7c 4e 3c e2 92 d1 bc
       -0.022639818 0.020631414 0.012602888 -0.025582734
000320 3d 76 d4 3c a4 10 1b 3d 91 00 4a bd b9 7d 07 bc
       0.025935287 0.037857667 -0.049316946 -0.008269721
000330 64 74 ad 3c 00 fc d5 b8 c7 95 cb bc bc f9 08 bd
       0.021173663 -0.0001020357 -0.024851693 -0.03344129
000340 44 39 8c 3c f8 77 47 bd 23 18 7d bc ba a0 32 3b
       0.01711715 -0.048698395 -0.015447649 0.0027256445
000350 26 fb 12 3d 1a 80 15 3d 58 f4 20 3c c3 23 9f 3c
       0.035884045 0.03649912 0.009823881 0.019426232
000360 0c ec fd bb 84 04 48 bd 07 23 6f bd f6 ff 7c 3c
       -0.0077490862 -0.04883243 -0.058383014 0.015441885
000370 9b 41 43 bd 66 c1 44 3d c7 38 36 bd b4 0b 24 bc
       -0.047669988 0.048036 -0.04448774 -0.010012556
000380 5c f0 aa b9 6e be 18 bd f6 74 48 3d ff 2b 58 3d
       -0.00032604008 -0.037290983 0.048939668 0.052776333
000390 68 fd 06 bc dd 62 5c 3c 9e 3f f2 3b 2f 37 36 3c
       -0.008239128 0.013451305 0.0073928377 0.011121555
0003a0 a5 ce cb 3c 00 6c 1b bd 10 e6 08 3d af 09 22 bd
       0.02487881 -0.037944794 0.03342253 -0.039560016
0003b0 b7 58 02 bd c1 c8 29 bd 36 84 17 bd 18 c5 cf 3a
       -0.031822886 -0.04145122 -0.03699132 0.0015851585
0003c0 d0 10 0a 3d 79 55 64 3d d8 3d ea 3c 1d 55 68 bd
       0.03370744 0.055745576 0.028593943 -0.056721795
0003d0 01 e5 be 3c f0 b1 3e bd 92 27 53 bd e7 c4 5f 3d
       0.023302557 -0.046556413 -0.05155141 0.05463114
0003e0 12 f5 27 3d e8 12 be 3c 47 14 0f bd 65 c9 24 3d
       0.0410052 0.023202375 -0.034931447 0.040231127
0003f0 fc 60 af bc 27 96 80 bd ac 01 38 3d 40 62 02 bb
       -0.02140855 -0.06278639 0.04492347 -0.0019894987

bias f4 [128]
000000 6b dc b1 3c 40 48 0d 3d 23 b5 de 3c b7 ef 4e bd
       0.021711549 0.03449273 0.027185982 -0.05052158
000010 19 8b a9 3b dc 39 41 3d 32 cd 0c bd 4f 23 99 3c
       0.0051740524 0.04717432 -0.034375377 0.018693594
000020 ed 80 e9 3a 7b 9e 88 3d 22 ab 89 3c 57 ea 08 3d
       0.0017814912 0.06670853 0.016805235 0.03342661
000030 f7 21 3a bc 84 94 52 bd 81 fe 1b bd b4 40 b4 bc
       -0.011360637 -0.051411167 -0.03808451 -0.02200351
000040 28 25 7c 3d ae 85 32 bd be b3 12 bd df 4c 66 3d
       0.061558872 -0.043584518 -0.035815947 0.056225654
000050 69 b5 33 bd 46 5f d9 3c a2 d4 e9 3c 52 7b 4e 3c
       -0.043874178 0.026534688 0.028543774 0.012602644
000060 c0 97 34 3d 2d 79 3a bd 11 fc 01 bd c3 39 1c 3d
       0.044090033 -0.04552572 -0.03173453 0.038141023
000070 2b d2 da bb fb 51 0c 3d 2c b7 6d bd f9 96 1d bd
       -0.006677886 0.03425787 -0.058036014 -0.038474057
000080 51 9b 6a 3c 30 39 1d bd 4c 30 e8 bc 9e 60 91 3c
       0.014319257 -0.038384616 -0.028343342 0.017746266
000090 e6 75 f5 3b eb 1b 5c bd a8 81 8a bc fb ae 54 bd
       0.007490861 -0.053737562 -0.016907528 -0.051924687
0000a0 5c a7 e7 bc c5 bc 05 bd be da 59 3d 2b 22 e0 3b
       -0.028278045 -0.032650728 0.053187124 0.0068400106
0000b0 35 fc 69 bd ae 9a 8d bc 91 97 d4 bc 77 ff 42 bd
       -0.05712529 -0.017285671 -0.025951179 -0.04760691
0000c0 4b dc 99 bc a2 89 e9 3b f5 c0 20 3d 3e 5c e9 3c
       -0.018781802 0.007127003 0.03924652 0.028486367
0000d0 59 d8 4f 3d 33 94 81 bd f2 01 90 bc e5 2d 6f bd
       0.050743435 -0.06327095 -0.017579053 -0.058393378
0000e0 fd 69 30 bd d8 41 87 3c 49 b7 a6 3c 4a ce 7c 3d
       -0.04306983 0.016510889 0.020351069 0.06172017
0000f0 ac 72 b2 bc bc 52 25 3d fd 72 4e 3d 6f d7 1c bd
       -0.021783195 0.040362105 0.05040263 -0.03829139
000100 9e cb 41 3b eb 52 13 bc f0 e1 26 3d ae ba 27 3d
       0.0029570828 -0.008991937 0.040742815 0.040949516
000110 e8 e4 65 bd ab b6 de bc 67 82 07 bd c5 92 b5 bc
       -0.056126505 -0.027186712 -0.033083346 -0.022164712
000120 cc c8 a8 bc a3 05 42 3b b5 cb fa bc c5 20 f3 bc
       -0.02060356 0.002960541 -0.030614713 -0.029678712
000130 cd 2c c7 3c 02 18 6f 3c 2a 71 e4 3c 47 3b 37 3c
       0.024313355 0.014593126 0.027885992 0.011183566
000140 5d e3 05 3c da ef b4 3c 03 4d c2 bc f7 da 6c bd
       0.008171883 0.022087026 -0.023718363 -0.05782601
000150 bf a3 ca 3c 83 02 d2 3b c8 27 4f 3d 80 d8 0d 3d
       0.024736283 0.006408991 0.050575048 0.0346303
000160 77 36 c4 3b 7a e2 c9 3b 50 4b 95 3c f0 91 95 3c
       0.005987938 0.0061610313 0.018224388 0.018258065
000170 67 24 19 3d 09 90 6e 3d f9 8b 19 3d 33 58 24 bd
       0.03738823 0.05824283 0.037487004 -0.040123176
000180 7b 58 e1 bc c1 f9 20 bd 8f 62 4c 3d c6 e3 25 bd
       -0.027508011 -0.039300684 0.04989868 -0.040500425
000190 f4 5d 1f 3d 22 b1 38 3d 1c ea b2 3b 49 d8 12 bd
       0.03890796 0.045090802 0.005460037 -0.035850797
0001a0 3d 26 63 3d 5f aa 4c bd c5 50 88 3c 3c ba cc ba
       0.05545639 -0.049967166 0.016640076 -0.0015619467
0001b0 a8 aa 61 3d 07 c8 60 bd de 8e 93 3b ad bd 28 bd
       0.05509439 -0.05487826 0.004503115 -0.041196514
0001c0 c5 07 1d bc a2 92 11 3c 27 26 cf 3c 05 0b 9e 3c
       -0.009584372 0.008885058 0.025286747 0.019292364
0001d0 e4 e9 39 bd be bc 75 bc 72 37 a1 36 7e 92 81 bd
       -0.04538907 -0.014998613 4.8046286e-06 -0.06326769
0001e0 48 92 a8 bb 5f ac 55 3d 78 39 40 3d b3 0a 5b 3d
       -0.005144391 0.05216634 0.046929806 0.053477
0001f0 90 da e0 3b fa 70 e2 bc 05 04 87 3d 64 84 6a 3b
       0.006861992 -0.027641762 0.065925635 0.0035784477

weight f4 [3, 128]
000000 99 31 9e bd 93 79 6f bd 67 e5 7d bd 62 54 80 bb
       -0.07724304 -0.05846555 -0.061986353 -0.003916309
000010 e1 b4 1d bd 1a eb f3 3b fa 43 46 3c 5a 2a 8c 3d
       -0.038502578 0.007443798 0.012101168 0.068440154
000020 67 93 db bc 89 5b b8 3d fd d7 ef bb 09 44 22 3d
       -0.026803685 0.09001834 -0.007319449 0.039615665
000030 1c 34 49 bc 5d 39 b1 bc 79 0e 59 bb 71 a2 df 3c
       -0.01228049 -0.021633798 -0.0033120199 0.027299138
000040 df 13 f8 bc 96 dd 81 3a c2 11 4b bd d6 fa b5 bb
       -0.030282913 0.0009907957 -0.049577482 -0.0055535836
000050 e3 dc 95 3d 74 51 7f bd 44 9e d1 3c 77 1e 3b 3c
       0.073175214 -0.06233354 0.025588162 0.011420838
000060 33 53 b0 3d f5 23 9a bd 3b 43 93 3d 2f 18 5a 3d
       0.08609619 -0.075263895 0.071905576 0.05324572
000070 f9 83 b5 3d 0b ac e4 3b b9 aa 86 bd 45 ac f6 bb
       0.088630624 0.006978517 -0.065755315 -0.0075278603
000080 c0 ff 87 3d d5 56 bd bc 47 c1 be 3d 49 1d 17 bd
       0.06640577 -0.023112694 0.093142085 -0.036893163
000090 3f 4e a3 bc 80 ab 93 bd 8a a5 b4 3c b5 f8 e6 3c
       -0.019934772 -0.072104454 0.022051591 0.028194765
0000a0 ce 26 8b bd 16 3c a6 bc c4 d4 46 bc 8f 17 b5 3c
       -0.06794511 -0.020292323 -0.012135688 0.02210596
0000b0 bd 72 60 3c 59 9c 5f 3d 86 f9 00 3d 89 53 a9 bc
       0.013699231 0.054592464 0.031487964 -0.020669715
0000c0 ae 57 60 bd 75 4e 95 3d 5b 8c 19 bd ad 46 68 bd
       -0.054771118 0.07290355 -0.03748737 -0.056708027
0000d0 e7 45 b0 3d ee 07 9f bd c4 31 ad 3d 25 d6 cc bc
       0.08607083 -0.07765184 0.08456758 -0.025004456
0000e0 35 33 be 3c f7 d2 5e 3d 23 46 a4 3b d5 14 9c ba
       0.023217777 0.05440041 0.0050132438 -0.0011908064
0000f0 b0 73 2e bd ec 54 de bc 77 e6 3e 3d a2 b8 27 3d
       -0.042590797 -0.027140103 0.046606507 0.040947564
000100 40 af 40 3d 77 f2 44 3d 0c cd 8b 3c 6a 5a 23 bc
       0.04704213 0.048082795 0.017065547 -0.009970287
000110 03 f9 9a 3d 9b 3a 73 3d 4b 98 35 3c fa d1 82 bd
       0.075670265 0.059382062 0.011083673 -0.06387706
000120 3b f7 67 bd 59 8e 49 bd 7a c7 70 3c 8c fa 89 bd
       -0.05663226 -0.04920802 0.014695996 -0.06737241
000130 d7 46 2d bd 05 da ac bd e8 71 74 3d 51 c7 c2 bb
       -0.042303886 -0.084400214 0.059678942 -0.0059441705
000140 72 b5 be 3d 75 7c 20 bd 90 e1 7c bd 32 ad 88 3d
       0.09311952 -0.03918119 -0.06173855 0.066736594
000150 9c ba 69 3d 4c b2 04 bd d1 bd 9d 3d 1a fa 57 bd
       0.05706273 -0.0323966 0.0770222 -0.05272875
000160 74 96 7d 3d cb 5a 7e 3d 11 83 b5 3d 22 5e 45 bd
       0.06191106 0.062098306 0.088628896 -0.048185475
000170 de c3 09 bc 93 44 09 bc 6b 04 8e bd 3f 45 c3 3d
       -0.008408515 -0.008378166 -0.069344364 0.09534692
000180 2b c4 82 3c 44 6c 7d bd 7c f6 08 bd 19 cb bc 3d
       0.01596268 -0.06187083 -0.03343819 0.09218425
000190 ec b3 a2 3d 55 05 95 bd 02 41 23 3d a3 0d 01 3d
       0.079444736 -0.07276408 0.03985692 0.031507146
0001a0 be db 89 bd 89 4c 57 3d 87 7b 98 3d 77 d5 90 3b
       -0.067313656 0.052563224 0.07445436 0.0044199782
0001b0 3f 7d 54 bd 64 61 12 bd ce 8a 4d 3d 92 44 6f bc
       -0.051877256 -0.03573741 0.050181203 -0.014603751
0001c0 a1 e1 13 3d a5 25 93 3d ee 00 7b 3d b5 ea ae 3d
       0.03610385 0.071849145 0.061280183 0.085408606
0001d0 16 a1 c9 3c 41 46 ad bd 30 64 46 bd 61 3c 33 3d
       0.024612945 -0.084606655 -0.04843539 0.043758754
0001e0 8d 36 b6 3d cc 72 61 3c 0b 70 96 bd fb af e8 bc
       0.088971235 0.01376028 -0.07345589 -0.028404227
0001f0 30 50 86 3c 06 22 a2 bd 7d fa 46 3d 9a 65 40 bd
       0.016395658 -0.07916646 0.048578728 -0.046971895
000200 12 c1 84 bd 5b ac 16 bd b3 52 c2 3d 1d 19 df bc
       -0.06482138 -0.036785465 0.0948843 -0.027233655
000210 89 1a 51 3d 7f 6d 76 3d 60 74 a2 3d c6 6e ef 3d
       0.051050697 0.060163017 0.07932353 0.1169105
000220 66 6e 98 bc 80 ac c3 3d a9 4a 44 bd a9 11 53 bd
       -0.01860733 0.09554386 -0.047922764 -0.051530514
000230 fc 8c bc 3d d2 c6 65 3d 3e b6 16 3d ce a2 46 bd
       0.09206578 0.056097813 0.036794893 -0.048495106
000240 aa e3 9c bd f2 d1 c4 3d cc a5 2c bd 87 0d bb 3d
       -0.07660611 0.096103564 -0.042150304 0.091334395
000250 af ce 93 3c e3 c6 66 3d b2 62 93 3c 3c 4d 9d 3d
       0.01804289 0.056342017 0.017991398 0.07680747
000260 00 3e 40 3d 32 a3 a0 3d f5 18 24 3d f6 3f 8e bc
       0.046934128 0.07843627 0.040062863 -0.017364483
000270 96 69 35 3d 2e 0c 99 3c 8b 41 86 bd b7 51 a7 bd
       0.044290148 0.018682566 -0.0655547 -0.08169883
000280 d3 cb b1 3d e2 37 87 bd 8c 2d 92 3d ad da 19 bd
       0.086814545 -0.06602456 0.071375936 -0.03756206
000290 44 83 81 3d f3 42 5a bd aa 76 8c 3d f4 ca d5 3c
       0.06323865 -0.053286504 0.06858571 0.026097752
0002a0 2e 53 35 3d 7e 5e a5 3d a4 65 96 bd 24 e9 da 3d
       0.04426878 0.080746636 -0.07343605 0.10688999
0002b0 e7 44 8a bc a5 6d 8f 3d 09 e0 9e bd 62 d6 d3 3d
       -0.016878558 0.07003335 -0.07757575 0.10343625
0002c0 cf 9e d6 bc 32 ab c8 3c 46 68 52 bd 0b ca 54 bd
       -0.026198773 0.024495695 -0.051368974 -0.051950496
0002d0 6a 4c 04 bc 58 30 45 3c 2f 4f 61 3d 2f f7 95 bc
       -0.008074859 0.012035452 0.055007156 -0.018306343
0002e0 69 1b e3 bc 36 96 9f 3d 24 d1 85 bd 63 f3 a1 3d
       -0.027723031 0.07792322 -0.06534031 0.079077505
0002f0 4e 41 a5 bc 2c dd be 3d f6 6b 4f 3d b5 29 a5 3d
       -0.020172741 0.09319529 0.05064007 0.080645956
000300 6d fc 3f bd 8e 36 86 bd 07 73 a6 bc 0e c9 9c bd
       -0.04687159 -0.06553374 -0.020318521 -0.07655536
000310 1a e3 29 bd 2c c9 30 3d cb c3 a3 bc d9 f9 a6 3d
       -0.041476347 0.043160602 -0.019990822 0.081531234
000320 fa 95 7c bd 23 ca c1 bc f3 eb f9 bc 00 ed ae 3d
       -0.061666466 -0.023655957 -0.030508017 0.08541298
000330 9b b6 47 bd 60 3f 5e 3c 57 59 9e bd d1 c0 73 3c
       -0.04875813 0.013564914 -0.07731884 0.014877514
000340 59 72 af bc 83 e9 93 3d 4a a8 55 3d d9 a2 22 bd
       -0.02141683 0.07222273 0.052162446 -0.039706085
000350 a2 18 ad 3d b6 f0 5e bd 18 37 b4 bb 29 4e 46 bd
       0.08451964 -0.05442878 -0.0054997317 -0.048414383
000360 ae 25 ae 3c 05 66 b8 3d 89 e7 39 bd bc e3 b6 3d
       0.021258201 0.09003834 -0.045386825 0.08930156
000370 01 12 c0 3c 95 80 2d bd bc 02 a5 3c c8 26 2b 3d
       0.023446085 -0.042358954 0.020142905 0.04178503
000380 a6 94 4e 3d cc bc 4e bc e4 fb 82 3c b8 2f 0b 3c
       0.05043473 -0.012618255 0.015989251 0.008495264
000390 4b c7 3e 38 18 11 8e bc df 61 45 3d 57 fe 3e bc
       4.5485136e-05 -0.017342135 0.04818904 -0.011657319
0003a0 80 b2 f4 3b 29 87 1c 3d ad 07 8a 3d 26 43 54 bd
       0.007467568 0.038214836 0.06739745 -0.05182185
0003b0 72 34 95 bd df 5a 0e bd c2 b0 24 3d ff e8 71 3c
       -0.07285394 -0.03475463 0.040207632 0.014765023
0003c0 42 92 4b bd dc ad 10 3d 7d db 95 3c 92 17 7d bd
       -0.04970003 0.035322055 0.018293137 -0.061790057
0003d0 7d 8c c5 3d 54 96 c3 3b a0 bb 97 bd 45 49 81 bd
       0.09645937 0.0059688482 -0.074088335 -0.06312803
0003e0 be 61 d5 3c 7e 51 88 3d 28 62 a5 3c d3 d0 3b 3d
       0.026047584 0.066561684 0.020188406 0.045853447
0003f0 21 71 08 bd 74 10 90 3d ea de 73 3d b6 83 77 3d
       -0.033311013 0.07034388 0.05953876 0.060428344

bias f4 [3]
000000 a1 c5 b1 3d be 80 31 3e ea a6 b1 3d
       0.08680273 0.17334267 0.086744145
