spendings_predictor3.pt (torch, 148170 bytes, 6 tensors)

weight f4 [256, 9]
000000 88 12 38 3e 8e cf 8c 3e bc 8d f9 3d ce 81 1b 3e
       0.17975819 0.27502102 0.12185237 0.15186235
000010 b9 e0 9b bd f3 56 17 3e eb 64 6b be 6e 1c ca 3d
       -0.07611222 0.14779262 -0.22987716 0.09868704
000020 e9 48 93 be 7d 87 46 3e 64 89 39 be 25 b1 28 bd
       -0.28766564 0.19387622 -0.18118817 -0.041184563
000030 96 c4 f5 bd 0d 1c 92 3d 67 36 8d bd 1e 7b f5 bd
       -0.120003864 0.071342565 -0.06895142 -0.11986373
000040 32 31 24 be 32 5d 05 be a7 e4 91 be dc 03 9a bd
       -0.16034392 -0.13023832 -0.2849476 -0.07520267
000050 bb 0e 1c 3e 11 37 e8 bd ab 6f 21 ba 63 0c 9e 3e
       0.15239994 -0.11338628 -0.00061583024 0.30868825
000060 0a d1 a0 3e 74 cd 96 3d 44 b4 24 3e a3 49 04 3e
       0.31409484 0.07363406 0.16084391 0.12918715
000070 50 fb 45 3e da c5 4d 3e 09 24 0b 3e 1a 26 32 3e
       0.1933415 0.20095006 0.13587965 0.17397347
000080 88 18 8c 3d bf fd 05 3e 7e e5 62 3e d5 54 f5 3d
       0.068406165 0.13085078 0.22157857 0.11979071
000090 44 19 90 3e 27 91 27 be 79 e5 8b be 0c 1e 46 3d
       0.28144276 -0.16363965 -0.2732351 0.0483685
0000a0 1b a1 3c 3e 2e de 57 3d a8 ef 6e 3e 01 96 c0 bd
       0.18420832 0.05270212 0.23333609 -0.09403611
0000b0 20 cd f8 3d 1c 67 aa 3e 94 e6 90 be 73 fd c2 3b
       0.121484995 0.3328179 -0.28300917 0.0059506237
0000c0 fe 7f 55 be 0c a9 36 3e 3b df 95 3e 06 ae 4c 3e
       -0.20849606 0.17837924 0.29271874 0.1998826
0000d0 b6 7f 1d 3e 89 4d 77 be 8f 09 93 3d 92 39 de 3d
       0.15380749 -0.24150671 0.071795575 0.108508244
0000e0 10 85 fa bd ce 85 e7 3b 32 d7 11 be c3 00 81 be
       -0.12232411 0.0070655113 -0.14242247 -0.25195894
0000f0 71 7a 87 3e 10 5d fc 3d 93 60 a1 be 17 4e 34 be
       0.26460603 0.12322438 -0.31518993 -0.17607914
000100 1f f3 92 3e df 5d 0f 3e 4d cc 59 be 03 90 a8 3e
       0.28701112 0.14000653 -0.21269341 0.32922372
000110 25 48 4a 3e 1b dc f8 bd 7a 58 8c bd d8 35 a9 be
       0.19754083 -0.12151357 -0.06852813 -0.33048892
000120 fe fe ef bd b5 64 6d be d9 da 5f be 1c f8 a6 be
       -0.11718558 -0.23182948 -0.21860828 -0.32611167
000130 8c a5 43 3e 6e a2 8a be 13 41 0e be 42 b3 78 3e
       0.1910612 -0.2707705 -0.13892011 0.24287131
000140 9d 4d 7c 3e 0d 70 e8 3c a8 da 5a 3d 72 f8 e5 3d
       0.24638982 0.028373742 0.053431183 0.11229028
000150 b1 31 98 bd 7b b4 82 be 67 e6 1d 3e 0a 4f a3 3d
       -0.07431353 -0.2552832 0.15419923 0.0797406
000160 19 5e a0 bd de e2 71 be 10 d7 83 3e 51 3b 34 bd
       -0.07830448 -0.23621699 0.25750017 -0.04400188
000170 61 62 ef 3d 5b 18 98 3d e6 eb f4 3d 49 b9 31 be
       0.11688686 0.074265204 0.119590566 -0.17355837
000180 84 e5 d2 3c e3 da 0e be c9 7d a8 3d cc 8b 14 3e
       0.025744207 -0.13950686 0.082271166 0.14506453
000190 ac ab 34 bd ea fb 06 be 38 81 00 be 97 a2 27 3d
       -0.04410903 -0.13182035 -0.12549293 0.040926542
0001a0 16 4f fe ba 1c 09 2d be 80 84 bd bd 7d f9 c8 3c
       -0.0019402232 -0.16898006 -0.09253788 0.024533028
0001b0 72 53 20 3e 19 84 8c 3e bf eb 58 be c2 dd ca 3d
       0.15656832 0.27444533 -0.2118368 0.09905578
0001c0 f2 a0 33 3e d6 ba 7a 3e 19 0f 67 3e 91 f3 38 bc
       0.17541865 0.24485335 0.22564353 -0.0112885395
0001d0 57 07 8b be 4c 44 5e be 01 0e 75 bd 98 c9 18 3e
       -0.27154037 -0.2170574 -0.05982781 0.14920652
0001e0 59 76 48 3d 2d 30 15 be 97 97 2b 3b 45 8a 79 3e
       0.04894099 -0.14569159 0.0026182884 0.24369152
0001f0 c5 f1 39 3e 6b 7b 84 be 98 52 3f be 13 9e ad bb
       0.18158634 -0.2587541 -0.18683851 -0.005298385
000200 ce f6 88 bd 1e cc 9c be 78 72 7f be c2 0b 4b be
       -0.06687699 -0.3062448 -0.2494601 -0.19828704
000210 20 f7 5f 3e 5e f2 dd bd 7c 3a a0 be 76 b5 88 3e
       0.21871614 -0.108372435 -0.3129462 0.26700944
000220 10 c8 6f be 48 19 9e bd 31 7b 1c bc 0f 8d 29 bc
       -0.23416162 -0.07719666 -0.0095508555 -0.010348572
000230 00 59 47 be 15 12 56 bc 86 fa 03 bd 32 23 12 3e
       -0.19467545 -0.0130658345 -0.03222134 0.14271238
000240 e0 69 aa bd 75 57 82 be b9 cb 8e be 38 9b 80 be
       -0.08320975 -0.2545735 -0.27889803 -0.25118423
000250 eb 87 dd 3d 0f dd 3d ba f1 89 3b be 5f c4 19 be
       0.1081694 -0.0007242718 -0.18314339 -0.15016316
000260 92 58 8a be 12 eb 7a be 42 11 6e 3e 00 43 7f bc
       -0.270207 -0.24503735 0.23248771 -0.015579939
000270 a3 94 79 3c ed 2f 91 be 68 3f 9f be 64 90 58 3c
       0.015233192 -0.28356877 -0.31103063 0.013218019
000280 40 24 a0 be 57 25 41 3d 98 92 0f 3e c3 d9 89 be
       -0.31277657 0.04715475 0.14020765 -0.26923952
000290 52 92 9e be 57 02 66 3e 55 e9 3c be fd 7a 91 3e
       -0.3097101 0.2246183 -0.18448384 0.28414145
0002a0 e0 0a e6 bd d5 28 49 be 2b b4 8f be 32 95 5a 3e
       -0.11232543 -0.19644482 -0.28067145 0.21345976
0002b0 07 6d 96 3e ed 8c 41 3e be e0 28 be 39 39 65 3e
       0.29380056 0.18901415 -0.16491982 0.2238511
0002c0 c1 a6 d6 3d a5 3c 6a be 90 c5 9c 3e 34 16 96 3e
       0.104810245 -0.22874697 0.30619478 0.29313815
0002d0 23 9f fc bd 41 3f 15 3d 95 14 49 3e 06 68 d0 bc
       -0.123350404 0.036437277 0.19636758 -0.025440227
0002e0 3c 37 82 3e 6e 2c 11 3d 6a c0 05 be a7 cb 86 3b
       0.25432765 0.035442762 -0.13061681 0.0041136327
0002f0 ec c0 c3 3d 03 ba 5c be 37 51 87 3d 51 48 7c 3e
       0.09558281 -0.21555333 0.066072874 0.24636962
000300 0e 2f 27 3e 8b 5d 49 be f6 6d 2f be 53 a3 79 3e
       0.16326544 -0.1966459 -0.1713179 0.2437871
000310 f5 c1 a0 be e4 05 0b 3e 7f 59 36 3e 35 4b 40 be
       -0.31397977 0.13576466 0.17807578 -0.18778689
000320 46 74 a4 be ec b8 1b be c9 93 93 be 2c f1 07 3e
       -0.3211996 -0.15207261 -0.2882369 0.13275594
000330 65 e4 c8 bd 16 77 cb bd 76 67 53 bd 6e f6 62 3e
       -0.09809188 -0.09934823 -0.05161234 0.22164318
000340 3d 06 a6 3d fa d8 6b 3e 2b 1b 88 3e 62 bb 6b 3e
       0.081066586 0.23031989 0.26583228 0.230207
000350 fe 9c 20 3d d4 f8 31 3e 77 7e 78 3e 91 45 5c be
       0.03921222 0.17380077 0.24266993 -0.21510912
000360 1c 51 8e 3e 39 05 22 be 4d c8 f3 3d 5c 04 9b be
       0.27796257 -0.15822305 0.11903439 -0.30276763
000370 ad 54 7b 3d 1a d4 ad bb ff 08 be 3d ea 00 a3 3e
       0.06136005 -0.0053048255 0.092790596 0.31836635
000380 86 67 96 3d f6 44 3b be 66 f4 c6 bd 86 53 02 3d
       0.07343964 -0.18288025 -0.09714584 0.031817935
000390 1e d0 70 3e 18 9e fe bd 2e 41 96 be 5f 89 0d 3e
       0.2351689 -0.12432498 -0.29346603 0.13821934
0003a0 0d 60 df 3d ec f8 0c be 76 14 17 be b6 a9 07 be
       0.10906992 -0.13766831 -0.14753899 -0.13248333
0003b0 00 90 91 bd 19 6a 75 3e 33 dc a1 be af f3 14 bd
       -0.07107544 0.23966254 -0.3161331 -0.036365207
0003c0 78 70 0a 3d 98 db 80 3e 0e 58 49 be 02 04 16 3b
       0.033798665 0.25167537 -0.19662496 0.0022890572
0003d0 9c d5 4b 3e 53 f2 8b bd 55 5a 0e 3d 14 43 9e 3c
       0.19905704 -0.06833329 0.034754116 0.019319095
0003e0 55 42 0d 3e a0 ce 50 bd 32 ad 8c bc ff 22 14 be
       0.13794835 -0.050978303 -0.01717243 -0.14466475
0003f0 0c c0 fb bc e6 11 84 be 2e d9 31 be a0 34 8f 3e
       -0.030731224 -0.25794905 -0.17368004 0.27969837

bias f4 [256]
000000 29 9c 53 be 77 c3 18 3e 95 6b a5 3b b3 dd 61 3d
       -0.20665039 0.14918314 0.005048225 0.05514307
000010 f4 bb 61 be af 4b 4f be 38 9a fd bd 2a 96 39 bd
       -0.22044355 -0.20243715 -0.123829305 -0.045309223
000020 e5 6e 4b 3e 3c 10 96 3e 87 c2 1b bb 46 9a a0 3d
       0.19866522 0.2930926 -0.002376707 0.07841925
000030 39 8a 06 3e 06 70 ec bd 9d a9 4c 3e 4f 97 fd 3d
       0.13138665 -0.11544804 0.19986577 0.123823754
000040 a3 64 0f bd 5f 0e 47 3e d2 09 6c 3e 5a 85 64 3e
       -0.035008084 0.19439076 0.23050621 0.22316495
000050 36 3c 79 3e f8 f8 77 3e 42 8a 25 3e 24 6e 33 be
       0.24339375 0.24216068 0.16166022 -0.17522484
000060 77 5f 89 be c9 f3 98 3d a9 f6 80 3e 8b 73 98 3e
       -0.26830646 0.07468373 0.25188187 0.29775652
000070 ed 65 04 3e 91 55 42 be 35 53 49 3d eb 2b 89 bd
       0.12929507 -0.18977953 0.049151618 -0.0669783
000080 1e 98 65 3e 5a f6 53 be eb ba 17 be b5 d9 e7 3d
       0.2242131 -0.20699444 -0.14817397 0.11320821
000090 8d 7d 6b 3c 73 75 ad bd ed c8 5f be 46 43 52 bd
       0.014373195 -0.08469667 -0.21853991 -0.05133369
0000a0 05 1d f9 bd 3c 69 7a be ed 04 93 3e 13 a3 9b 3e
       -0.12163738 -0.24454206 0.28714696 0.30397853
0000b0 45 33 a9 bd 4c 58 31 3d 22 84 17 3d 9d 79 36 bd
       -0.08261732 0.043297097 0.036991246 -0.044549573
0000c0 a8 79 3c be d5 44 e3 3d e3 a1 0d 3e 30 bc 65 be
       -0.18405783 0.11097113 0.13831286 -0.22435069
0000d0 3e 05 7b be c3 2e 19 3e 22 e4 ee bd 69 7c 63 be
       -0.24513718 0.14959244 -0.11664607 -0.22215427
0000e0 88 af 4c 3d a8 0d 66 be 2a a1 0d be cf e7 67 bd
       0.049972087 -0.22466147 -0.1383101 -0.056617554
0000f0 3f d0 87 be 51 c6 61 be eb be 87 3e 54 9e 03 be
       -0.26526067 -0.22048308 0.26512846 -0.12853366
000100 8b 6a a9 bd 45 80 90 3e 68 02 2d 3e fe 65 63 3e
       -0.082722746 0.28222862 0.16895449 0.22206876
000110 68 07 ba bd 4b 93 a9 3e bf cb 52 3e c2 7c 6d 3d
       -0.09083444 0.33120188 0.20585535 0.057980306
000120 56 9c a3 3e 67 a4 0b 3e c6 4a 76 3c ed 7e f1 3d
       0.31955212 0.13636933 0.015032476 0.11791787
000130 59 66 84 be d5 9e 91 bc 40 53 30 3d c0 a1 99 3e
       -0.25859335 -0.017775932 0.043048143 0.30006218
000140 b5 df 36 3e 57 c4 a4 bd 71 f7 7d be dd b5 62 be
       0.17858775 -0.08045261 -0.24801423 -0.22139688
000150 dc f0 04 3e ab 06 f0 bd a1 8c 8b be ec 3b a2 be
       0.12982506 -0.11720022 -0.2725573 -0.31686342
000160 9e fc 8d 3e fa fb 8d 3e 09 e5 64 3e dc 0e 3d bd
       0.27731794 0.27731305 0.22352995 -0.04615675
000170 a0 6f 94 3e 8c ff 18 3d 7a bc 04 be aa 72 a5 be
       0.28991413 0.037353083 -0.12962523 -0.32314044
000180 39 a7 e2 bd 3a 06 21 3e 2b 81 84 be 13 a6 67 3e
       -0.110670514 0.15725031 -0.25879797 0.22621946
000190 b4 58 74 be 4b 58 8d 3e 6e e2 17 3e 4c 25 12 be
       -0.23861963 0.27606425 0.1483247 -0.1427204
0001a0 fc 2b 5f 3d f3 d3 a7 3e 24 eb 63 be 30 99 65 3d
       0.054485306 0.32778892 -0.22257668 0.056054294
0001b0 00 86 02 3d 7a 52 f2 3d cd 25 05 be eb 9d e0 bd
       0.031866074 0.118321374 -0.13002701 -0.109676205
0001c0 bc 5a 24 be eb 39 a8 be eb 40 29 3e 11 7e b0 bd
       -0.16050237 -0.32856688 0.1652867 -0.08617795
0001d0 c8 31 88 be 56 67 67 be 4e 61 63 3e 8c 5f 25 3e
       -0.2660048 -0.22598013 0.22205088 0.1614973
0001e0 bc c6 84 be 16 95 4f be 0d 20 18 be 28 80 78 be
       -0.25932872 -0.20271716 -0.14855976 -0.24267638
0001f0 39 18 21 be 10 e0 c8 bc 9d 52 92 be db 61 59 be
       -0.15731896 -0.024520904 -0.28578654 -0.21228735
000200 a8 aa 2a be 1b c7 4a be 90 33 14 3e 9c ed 93 3e
       -0.16666663 -0.19802515 0.14472795 0.2889222
000210 10 52 8d bd e6 d1 67 bd cd 1a ff bd 9d b6 22 be
       -0.06900418 -0.05659666 -0.12456284 -0.15889974
000220 b6 52 98 3e ee c4 69 bd f8 da 04 3e eb de 7d 3e
       0.29750603 -0.057072572 0.12974155 0.24792068
000230 26 25 aa 3e 33 40 67 be b2 68 5c 3e fe 66 95 be
       0.33231467 -0.22583084 0.21524313 -0.2918014
000240 e2 ff 8c be 54 2e a2 be 02 1f a4 3d 45 b5 68 3b
       -0.27538973 -0.3167597 0.08013727 0.0035508436
000250 3a 86 b9 bd 6c 22 34 3e d6 52 0b 3e 7c 3e 6e be
       -0.09058805 0.17591256 0.13605818 -0.23266023
000260 c7 d6 38 3e c5 8f 90 bd 89 08 97 be 74 c4 90 3e
       0.18050681 -0.07058672 -0.294987 0.28274882
000270 a8 f0 0d 3e a5 37 6b be e2 3b 3b 3d 0d cf 85 3e
       0.13861334 -0.22970445 0.045711406 0.2613453
000280 97 b9 a5 be 90 d2 16 bd 32 34 da bc 24 36 9c 3e
       -0.32368156 -0.0368219 -0.026636217 0.30510056
000290 a9 94 35 be 85 85 aa be 7a 71 a8 be 26 c0 83 3e
       -0.1773249 -0.33304992 -0.32899076 0.25732535
0002a0 09 e8 38 be a5 93 a1 be 1f 7d 1f 39 42 35 57 3e
       -0.18057264 -0.31557956 0.00015210033 0.2101641
0002b0 a4 61 95 3e b7 aa 51 3e 13 be 22 3e b3 2a 02 3d
       0.29176056 0.20475279 0.1589282 0.031779002
0002c0 ee a7 6c be 9a 4d 8c be 65 90 a7 be fb 36 c7 3d
       -0.23110935 -0.27402955 -0.32727352 0.097272836
0002d0 91 c6 17 3e 4f db 5e 3e 69 84 6b 3d 58 14 23 3e
       0.14821841 0.21763347 0.057499323 0.1592573
0002e0 5b d4 81 3e a3 d8 47 3e e9 f2 12 3e d3 4e a5 be
       0.25357327 0.19516234 0.14350475 -0.322867
0002f0 ef 96 78 3e 21 c9 a6 3e 2f 7b 9f 3d 75 79 69 be
       0.24276327 0.32575324 0.07787167 -0.22800238
000300 b4 2a 69 bd e4 60 b2 bd 56 58 d2 b9 d5 49 a5 3d
       -0.05692549 -0.08709887 -0.00040120137 0.08070723
000310 4a 67 33 bd c9 ea e9 bb 20 1f 92 3e d3 23 c0 3c
       -0.043799676 -0.0071385843 0.28539371 0.023454582
000320 66 b8 fd bc 80 db 4c be 01 0a 71 be 80 ce a7 3e
       -0.030971717 -0.20005608 -0.23538972 0.32774734
000330 8d 8f 0a be 41 30 91 3c 16 b0 c9 bd 11 27 74 3e
       -0.13531323 0.017723205 -0.09848039 0.23843028
000340 7b cd 10 be 25 27 88 be d5 3e c5 3d fa eb 0f 3e
       -0.14140885 -0.26592365 0.09631125 0.14054862
000350 64 8e aa 3e fe 84 87 bd fb c9 e4 bd f5 9d 89 3e
       0.3331176 -0.06617163 -0.11171337 0.26878324
000360 c5 38 cf bc b1 eb 19 3d ee cc 0b be be d9 09 bc
       -0.025295625 0.03757829 -0.13652393 -0.00841373
000370 74 bb 6b be cd a0 a5 bc 47 eb e3 3d 23 59 3b be
       -0.23020726 -0.020218277 0.1112886 -0.18295722
000380 3f 75 56 3e 1c 0b de bd dd 0c 3b be 8a 32 91 3e
       0.20943163 -0.10841963 -0.18266626 0.2835887
000390 9a c2 46 be 9a a0 8a 3e 65 b7 87 3e b7 9a 0e be
       -0.19410172 0.27075654 0.26507106 -0.13926207
0003a0 48 6b f9 bd af 14 33 3e c9 7c 0e 3e 0d 42 9a 3a
       -0.121786654 0.17488359 0.1391479 0.0011768952
0003b0 d4 a6 14 be b9 1e ca 3d 0b 8d 95 be d3 b1 47 bd
       -0.14516765 0.09869141 -0.2920917 -0.04875357
0003c0 16 a8 4d be 95 0e ea 3b 19 16 68 bd 9b 46 ea bd
       -0.20083651 0.0071428516 -0.0566617 -0.11439248
0003d0 02 70 0f be b3 cd 26 3e c2 f5 12 3c b0 73 d9 bc
       -0.14007571 0.16289406 0.008969726 -0.026544422
0003e0 75 33 19 be ed a2 94 3e a8 dc ec 3c 32 b4 6d 3d
       -0.14961036 0.29030553 0.02891381 0.058033176
0003f0 73 0f f6 bd b1 5e 55 be a1 ff bd bd ed a4 d6 bd
       -0.120146655 -0.20836903 -0.09277273 -0.10480676

weight f4 [128, 256]
000000 4f 7d e9 bb 44 c9 b7 3b 8d bd 2f 3d a7 b5 39 bc
       -0.0071255337 0.0056087095 0.04290538 -0.011334813
000010 fc 8f 4e bd 79 52 c8 3c 5e cf ef 3b 1a a4 7d bd
       -0.050430283 0.024453389 0.0073184213 -0.061924078
000020 ad b9 77 3d 93 09 d3 3c c7 0f f4 bc 1a d7 98 3c
       0.06047981 0.025761401 -0.02979268 0.018657256
000030 c9 fb 02 3d 53 ed 20 bd de e3 cd 3c 43 86 88 bc
       0.031978402 -0.03928883 0.02513307 -0.016665583
000040 88 33 2d 3c 62 e6 08 3d 77 11 02 bd 9a 9f 41 3d
       0.010571368 0.033422835 -0.031754937 0.04727135
000050 b6 72 79 bc 63 8b 68 3d a1 ea ce 3c 8e fa 80 3c
       -0.015225103 0.056773555 0.025258364 0.015744474
000060 8c f4 5a 3d 66 09 72 bd 6d 1b 86 3c 5b 8d 7c bd
       0.053455874 -0.059090994 0.0163705 -0.061658245
000070 aa a3 30 3d 61 af 8b 3c ad d2 73 3d 0e 35 87 3c
       0.043124832 0.0170514 0.059527088 0.01650479
000080 de 33 03 3c 4c 6c 42 3d fb 51 73 bd 6b 65 28 3d
       0.008007972 0.04746656 -0.059404355 0.041112345
000090 69 50 33 bd b5 4d db bb 9b d8 f8 bc 5f 57 23 38
       -0.043777857 -0.006692613 -0.030376723 3.89436e-05
0000a0 54 7e 80 bb 6d ff 1e bd 6e 9d 96 bc 2b b0 3b bc
       -0.0039213095 -0.03881781 -0.018385615 -0.011455576
0000b0 98 7d 2b bd 16 f3 f7 3b 8f 7f 23 bd b9 70 a1 3c
       -0.041867822 0.00756682 -0.03991657 0.01970707
0000c0 75 0e 7d bc f5 68 14 3c fd 78 39 bd 7e ca 72 bc
       -0.015445341 0.009058227 -0.0452814 -0.014818786
0000d0 d5 41 f6 bc 38 79 07 3c e1 a3 2e 3d 00 7c 20 3d
       -0.030060688 0.008268647 0.042636756 0.039180756
0000e0 51 b6 bd bc 97 b4 63 3d c4 6e 47 3d 67 10 18 3d
       -0.023158224 0.055592146 0.04868962 0.037125017
0000f0 05 a9 39 3d 07 2d 7a 3d 17 fe 37 bd 93 85 bd 3b
       0.045327205 0.061078098 -0.044920053 0.0057837456
000100 94 75 eb 39 2b 25 78 3c e7 0b d8 bc 48 f7 dd bb
       0.00044910295 0.01514558 -0.026372863 -0.006773863
000110 fd 53 fa 3c 92 2a b7 3c b9 2d ae bc 1e 34 e7 bc
       0.030557627 0.022359166 -0.021262037 -0.028223094
000120 ec 83 26 3d 96 f8 78 bb 9a 7b 0d ba 78 be 6f 3d
       0.040653154 -0.0037989966 -0.0005397141 0.058531255
000130 07 11 1c 3d bf fd 78 3c 53 f4 31 3c 5f c0 77 bd
       0.038102176 0.0151972165 0.010861474 -0.060486194
000140 d4 ed 63 bd fb dd 53 bd 82 31 18 bd 34 c8 2c 3d
       -0.055646732 -0.05172537 -0.03715659 0.042183116
000150 e7 13 5e bd e7 ba b0 3c 10 36 50 3b b8 0d 8c bc
       -0.0542182 0.021573497 0.0031770505 -0.017096385
000160 59 5d 97 3c fc bb 87 3b d3 e3 15 bc 84 dc 0a bd
       0.018477129 0.0041422825 -0.009148556 -0.033901706
000170 d9 7e ef 3c bb 9b 59 bd 99 b7 4a 3d 9f 47 53 3c
       0.02923529 -0.05312703 0.0494915 0.012895494
000180 14 e6 38 bd 61 89 cd bc b6 8a 80 3c a4 e4 ff 3c
       -0.045141295 -0.025089921 0.015691143 0.031236954
000190 c5 35 07 3c 2b 6a 1e 3d 25 75 95 bc df 36 85 3c
       0.008252566 0.03867547 -0.018244335 0.016261516
0001a0 d6 b2 68 3d 59 af d7 3c ac 7a 54 3d 47 39 3b bc
       0.056811176 0.02632873 0.0518748 -0.01142723
0001b0 bc b8 92 3c 28 c1 01 3d 6d 81 0b bd b0 58 30 bc
       0.017910354 0.03167835 -0.034058977 -0.010763332
0001c0 5d 7f 6f 3d 17 7f ed 3c d0 4e ab bc 37 29 ca ba
       0.058471072 0.028991265 -0.020911604 -0.001542366
0001d0 c8 9f 84 3c 0a 97 7a bd 43 9f 90 bc 8b b5 74 bb
       0.01618947 -0.0611792 -0.017654067 -0.0037339653
0001e0 4b be d6 3c 01 3e 1b bb b1 04 f1 3c 45 6a 48 bd
       0.026213786 -0.002368808 0.029421182 -0.04892947
0001f0 79 a3 93 bc 8a 7e 8c 3c 48 90 4b bd e3 8d 52 3c
       -0.018022286 0.017150182 -0.049698144 0.012851211
000200 22 25 0d bc 62 d6 52 bc 9a 25 a2 3c 60 d9 8f 3b
       -0.00861481 -0.012868496 0.01979332 0.004389927
000210 7a 89 6c 3d 2a 56 2e bd de d3 ec bc 9e e9 c5 bc
       0.057748295 -0.04256264 -0.02890962 -0.024159249
000220 25 33 61 3d e0 97 3a bd 3b b0 54 3c df aa 75 3c
       0.054980416 -0.045554996 0.01298147 0.014994352
000230 1e 28 68 bd 42 1a 0a 3d ba 14 1f bd ea 12 30 3d
       -0.056678884 0.033716448 -0.038838126 0.042986788
000240 6d 7f 41 bc d3 96 ce 3c 20 5a 71 bc ca 47 63 bb
       -0.011810166 0.025218403 -0.01473096 -0.003468024
000250 39 0a fc 3c 1b 83 9f 3c c2 01 aa 3c 49 47 73 bd
       0.030766593 0.019471696 0.020752791 -0.059394155
000260 cb dc 30 3c 39 63 9e bc e1 f1 25 3d d2 20 78 3d
       0.010794829 -0.019334422 0.040513877 0.060578175
000270 de 2b 74 3b bb a7 8d bc b2 6d a1 bc 35 f5 32 3c
       0.0037257592 -0.017291894 -0.019705627 0.01092272
000280 91 3e 8f 3c 43 09 5c 3d 45 0f 40 3d 8e 65 9a bc
       0.017485889 0.05371977 0.046889562 -0.018847253
000290 c5 55 62 bd 7b 5a d2 bc 4a 5e 76 3c 4b 50 d7 3c
       -0.055257577 -0.02567791 0.015037129 0.026283404
0002a0 62 0f e5 bc 09 61 25 bd c5 00 45 bc 23 ae b0 3c
       -0.027961437 -0.040375743 -0.012024109 0.02156741
0002b0 d0 d5 8d 3c e9 00 4b 3d 2e 02 de bc cd 2d b8 bc
       0.017313868 0.049561415 -0.027100649 -0.022482777
0002c0 6a 21 11 bd 67 d6 d4 3a 14 61 28 bb b8 90 6c 3d
       -0.035432257 0.0016238213 -0.0025692629 0.057755202
0002d0 a4 3f 37 3c 45 a4 52 3c 00 2e 6f bd 24 6e 2e 3d
       0.011184607 0.012856548 -0.05839348 0.042585507
0002e0 fd 49 53 bd 40 01 7d bd c1 dc 3e bd ae f2 6f bb
       -0.051584233 -0.06176877 -0.046597246 -0.0036613154
0002f0 b3 9f 91 bc f2 68 0d bd 95 bb 71 3d 90 cd 2f bd
       -0.017776346 -0.03452391 0.059016783 -0.04292065
000300 c4 37 0f bd 25 23 75 3d b6 3c 53 3c 16 ba 42 3b
       -0.03496529 0.05984797 0.012892893 0.0029712967
000310 a3 cf 5a bd 5f 9c 1b bb 1b 60 37 3c 49 d8 e0 3c
       -0.053420674 -0.0023744327 0.011192347 0.027446883
000320 9f 04 bd 3c 79 06 76 bd 46 57 54 bd 3b bd cf 3c
       0.023073493 -0.060064767 -0.051841043 0.025358787
000330 7b df 6c 3d 96 2f 60 3d 29 40 3a 3d 44 1b ed bc
       0.057830315 0.05473288 0.045471344 -0.028943665
000340 9b 39 68 3d 78 b3 38 3d d5 c5 6b bd 1f 4d cd bc
       0.05669556 0.04509303 -0.057561714 -0.025061188
000350 fe ae 4a bd 6b 4e 0d 3d 80 75 04 3d cb 37 b2 bb
       -0.04948329 0.034498613 0.03233862 -0.00543878
000360 f7 69 4d 3d 1f ef 02 3d c7 49 8f bc de 38 b2 38
       0.050149884 0.031966325 -0.017491234 8.498294e-05
000370 b9 6a 88 3c e6 48 35 bd 44 b7 56 3d b1 ee 22 3d
       0.016652452 -0.044258974 0.05242087 0.039778415
000380 1b 0e 79 3c ab 02 95 3c f4 f0 05 bb 61 46 57 3d
       0.015201117 0.018189749 -0.0020437809 0.052557353
000390 50 6d 54 bd 59 fd 19 bd f9 aa 47 3c 8c 32 dd 3c
       -0.05186206 -0.037595127 0.012186759 0.027001642
0003a0 ae 2b 8b 39 ae 22 64 3d 76 ed c6 3c 9a 0e 27 bd
       0.0002654469 0.055697136 0.024283152 -0.04078541
0003b0 4c ce 7c 3d 23 90 c8 b8 7b e7 ba 3c 95 01 32 b8
       0.061720178 -9.563591e-05 0.022815457 -4.243998e-05
0003c0 65 44 0f bc 3c 7a 61 bd 29 87 41 bc 66 2f 13 bc
       -0.008744334 -0.055048212 -0.01181201 -0.008983469
0003d0 f6 ea c0 bc 44 db 32 bd 1e 01 9c bc 8d 74 2f 3d
       -0.023549538 -0.04366614 -0.019043501 0.04283576
0003e0 2e 07 1e 3d ac 27 dc bc a8 48 2d 3d 44 a0 30 bd
       0.038581066 -0.026874386 0.04230562 -0.04312159
0003f0 ac 94 ce 3b 51 c2 62 3d 71 8b 06 3d 19 c4 11 bd
       0.006304344 0.055361096 0.032847825 -0.035587404

bias f4 [128]
000000 ca 88 07 3d cd 98 16 3d bd 47 41 3d 45 ca 98 3c
       0.033089437 0.036766816 0.047187556 0.018651137
000010 dd 0e 7b 3c f8 bb 39 bd 51 21 bb bc 7d 43 9b 3c
       0.015323368 -0.045345277 -0.022843035 0.01895308
000020 6c 37 ba 3b 04 8b 4e 3d 24 ab 9f 3c 24 f5 48 3c
       0.0056828763 0.050425544 0.019490786 0.012265477
000030 23 8a 55 3d 86 1a 2f bd 53 c7 06 bd 4c ef 90 3b
       0.05213369 -0.042749904 -0.032904934 0.0044230577
000040 98 0c 1e bd 6d 55 4c 3d 49 ea 43 bd 50 03 d7 3c
       -0.03858623 0.049886156 -0.047830854 0.026246697
000050 cc 32 65 3d d4 bc 01 bd 74 e0 81 bc b0 e7 c0 bc
       0.055956647 -0.03167422 -0.015854098 -0.023547977
000060 63 9b 64 3d 67 17 19 bd f1 9e 14 bd 1c f3 c0 bc
       0.05581225 -0.037375834 -0.03628439 -0.023553424
000070 87 a7 f4 bc 33 08 7e bd 94 71 77 bd 12 1c d4 bb
       -0.02986504 -0.062019538 -0.06041105 -0.006473073
000080 65 25 4d bd 0f 43 19 bd 4f c4 09 3d 74 2c 56 3c
       -0.05008449 -0.037417468 0.03363448 0.013072122
000090 3e e6 74 bd 69 de 95 bc ee 0b 53 bd 7e c8 f8 3c
       -0.05978989 -0.01829453 -0.05152505 0.03036904
0000a0 e8 46 61 bd 14 f1 25 bd 34 94 5f bd 93 f9 69 3d
       -0.054999262 -0.040513113 -0.054584697 0.05712278
0000b0 84 64 54 bd 23 73 76 bd 62 aa 01 3d 58 58 59 bd
       -0.05185367 -0.060168397 0.03165663 -0.053062767
0000c0 bf 91 1d bc 8f 31 ea bc b7 ad 91 bc 32 2f 6c bd
       -0.009617268 -0.028588085 -0.017783029 -0.057662196
0000d0 cd ef eb bc 93 9d 78 bd 29 c3 31 3d bf 48 01 bd
       -0.02880087 -0.06069715 0.04339901 -0.031563517
0000e0 f3 d2 3f 3d d7 8f ab 3c 51 3c 70 bd fa e3 43 3d
       0.046832036 0.020942612 -0.058651272 0.047824837
0000f0 81 42 0a bd c0 e7 7d 3d cd 7a 7d bd 24 e8 dc 3b
       -0.03375483 0.061988592 -0.06188469 0.0067415405
000100 b1 93 6b bd 0b bd 85 3c 1f fd 26 3d 51 4a 51 3c
       -0.057513896 0.016325494 0.04076874 0.012774066
000110 c5 77 3a 3d 82 af 55 bd be fe bc bb 82 8b 4e bd
       0.045524377 -0.05216933 -0.0057676723 -0.050426014
000120 c7 84 3f 3d 8d 67 5c bd fb 12 56 bd a9 a5 52 3b
       0.046757486 -0.05380969 -0.052264195 0.0032142198
000130 eb c0 3d bd 2e 8e 5c bd d4 72 1c bd 00 13 9e bc
       -0.04632656 -0.05384653 -0.038195446 -0.01929617
000140 c6 77 44 3c 9f 02 94 bb 1c 7e 3f bd c5 6e 19 3d
       0.011991447 -0.004516914 -0.046751127 0.037459154
000150 05 ce 4c 3d fa c6 63 bd d2 41 18 bd bb 2c 23 bd
       0.050001163 -0.05560968 -0.037172146 -0.03983758
000160 c7 fe bd ba 2c d4 13 3d 9e 31 48 3d a6 d9 f3 3c
       -0.0014495485 0.036091015 0.048875444 0.029766869
000170 e7 88 b3 bc 43 94 da 3b d3 ba 34 bd b1 ca 7e 3d
       -0.021915866 0.006670506 -0.044123482 0.06220502
000180 29 12 60 bc 90 aa 37 3c 09 d4 1d bd 21 69 f7 3a
       -0.013676205 0.011210099 -0.03853229 0.0018875935
000190 75 9a b7 3c d7 4f 57 3d b5 db 03 bd 28 c4 49 bd
       0.022412518 0.052566376 -0.03219195 -0.049259335
0001a0 96 c5 4e bd 1f d2 ed 3a 79 96 2d bd 19 e7 33 bd
       -0.0504814 0.0018144286 -0.04237983 -0.043921564
0001b0 9c f8 6f bd f4 f7 2b bb 9b 28 c0 bc 0c 25 7e bd
       -0.0585867 -0.002624032 -0.023456862 -0.06204705
0001c0 34 50 98 bc d0 75 c9 3c f3 0e 6c bd 6c 3c 47 3b
       -0.018592931 0.02459231 -0.057631444 0.0030401004
0001d0 46 a9 16 bd 4d 0d 42 3d c8 fd 05 3d 31 0d 10 bd
       -0.036782525 0.047375966 0.032712728 -0.03516883
0001e0 4f 84 69 bd f1 8c 25 3d 98 4d c2 3c ff 02 46 bd
       -0.057010945 0.040417615 0.02371864 -0.0483427
0001f0 f5 46 a8 3c 25 65 92 3c 64 34 75 3d fe 0d 69 3d
       0.020541647 0.017870495 0.059864417 0.05689811

weight f4 [3, 128]
000000 53 fa 2a 3d f1 9a 85 bd 7f 91 2d 3d 45 9d c8 3c
       0.041742634 -0.06523693 0.042375084 0.024489054
000010 d8 89 72 3c d8 a8 a9 bd 25 b8 9a bb 04 39 7b 3a
       0.014803372 -0.082841575 -0.004721659 0.0009583386
000020 6d 69 11 3d 49 04 8c 3b 05 68 22 bd fd 50 3b bd
       0.035500932 0.004272972 -0.039649982 -0.045731533
000030 9c e9 77 3d 5e f2 89 ba be be 4c bd 07 91 43 3d
       0.06052552 -0.0010524502 -0.049986593 0.04774573
000040 92 b7 59 3d 5e 56 3d bd 62 9d a0 3d d3 50 73 bd
       0.053153582 -0.046224944 0.078425184 -0.05940325
000050 72 11 f2 3c 7f 1d 2f 3d 81 07 aa bd 1a 84 8d 3d
       0.029549334 0.04275274 -0.083022125 0.06909962
000060 a5 40 34 3d e4 85 b0 bd 59 c9 9e bd a7 58 a7 bd
       0.044006962 -0.086192876 -0.07753248 -0.08171206
000070 89 85 3c bc 99 e2 ba 3c 76 41 61 bc 41 43 04 3d
       -0.011506447 0.022813128 -0.013748517 0.0322907
000080 b2 1f b2 3d 5f c7 c0 bc f6 79 9b bc a6 00 ae bd
       0.08697452 -0.023532568 -0.018979054 -0.084962174
000090 95 44 92 3d 11 c6 93 3d 27 2f d0 bc 5a af 97 bc
       0.07141987 0.072155125 -0.025413109 -0.018516231
0000a0 24 3c 88 3d 19 00 8c bd 52 1e b1 bd d9 a6 86 3c
       0.06652096 -0.06835956 -0.08648361 0.016436981
0000b0 4b 1c 33 bd 53 74 11 bd 75 78 a5 3d 14 7f 60 3d
       -0.043728154 -0.035511326 0.08079616 0.05480869
0000c0 f1 38 9d bb f6 03 5d 3b 39 a1 40 bd ed 4a 6f 3d
       -0.0047980477 0.0033724285 -0.047028754 0.058421064
0000d0 96 83 b4 bd 59 09 71 3d c7 18 ad 3d 88 71 e2 3c
       -0.088141605 0.058846805 0.084519915 0.027642027
0000e0 41 02 aa 3c ff c9 88 3d ad 96 5c 3c d6 a9 88 bc
       0.020753028 0.06679153 0.013463658 -0.016682547
0000f0 30 86 92 3d c8 03 b5 bd 09 87 e2 3c 93 42 23 3d
       0.071545005 -0.08838612 0.02765228 0.039858412
000100 a1 b7 01 bd 21 19 5e bd 57 da 87 3d a7 6f 85 bd
       -0.031669263 -0.054223184 0.06633442 -0.065154366
000110 84 b0 56 bc 0a 25 22 bc cc 14 6c 3d 84 18 3b bd
       -0.013103608 -0.009896526 0.05763702 -0.045677677
000120 4c 8f 8c 3d 9a 78 b1 3d f7 b5 db bc 39 45 77 bd
       0.06863269 0.08665581 -0.026820166 -0.06036875
000130 7c 2c 4b 3d f4 75 53 bd 09 67 e7 3c d4 63 88 bc
       0.04960297 -0.05162616 0.028247373 -0.016649164
000140 31 e3 3b bc 64 3a 12 3d 88 ff 6d bd 67 91 a4 3d
       -0.011467741 0.035700217 -0.05810502 0.08035546
000150 cb 92 38 bc 0f cf 92 3d 66 f8 3f bd df 3f 8c 3d
       -0.011265467 0.071683995 -0.04686775 0.0684812
000160 74 55 6a 3d e3 6c 98 3d 16 0b 53 bd dd 86 79 3c
       0.0572104 0.074426435 -0.051524244 0.015229908
000170 cd 6e 6d 3c 1c 4d a8 3d b2 42 31 bd 38 d9 34 3d
       0.014491749 0.082178324 -0.043276496 0.04415247
000180 88 d2 b2 bb 4e 33 48 bd a3 a0 3b 3c 7d 3b 54 3d
       -0.005457226 -0.048877053 0.011451873 0.051814545
000190 fd 2d 32 3d 28 c9 15 bd fd 46 19 bc 38 52 35 3c
       0.04350089 -0.03656879 -0.009355304 0.011066966
0001a0 c0 ca 34 bd 23 84 9c 3d 29 0e a5 3d 89 a6 6a bd
       -0.04413867 0.076423906 0.080593415 -0.057287727
0001b0 7d f1 7c 3d 12 b0 98 3d 83 a1 2d bd 06 06 8b 3d
       0.06175374 0.07455458 -0.042390358 0.06788258
0001c0 19 1a 57 bd 04 06 8b 3d 3b 1a 48 3d b7 80 18 3d
       -0.052515123 0.06788257 0.04885314 0.037232127
0001d0 88 ef 60 3d 5c 45 59 bd 13 57 74 3d 1c f2 ad 3d
       0.054915935 -0.053044662 0.059653353 0.08493444
0001e0 ea fa 30 3d 86 61 94 bd de 63 31 3d a9 94 69 3d
       0.04320804 -0.072451636 0.04330813 0.05702654
0001f0 6f c7 1f 3d d3 6f a9 3d 59 18 35 bd 0f b2 42 bc
       0.039008554 0.08273282 -0.044212673 -0.011883273
000200 22 c4 02 bd 19 6e 3f bc 9a ee 3e 3c 0a 09 97 3d
       -0.031925328 -0.011683964 0.011653567 0.07374771
000210 70 14 90 3d 41 a1 3c bd 81 ff c6 3d 0f 61 c4 3a
       0.07035148 -0.04605222 0.09716702 0.0014982539
000220 9c 0d 84 3d a7 36 a5 3d ff 4e 9f 3d 6b f1 40 bd
       0.06447908 0.08067065 0.07778739 -0.047105234
000230 8f a1 af 3d 04 5d 88 bb 2f 80 66 3c 37 da 76 bc
       0.08575737 -0.004161479 0.014068647 -0.015066675
000240 6e a5 ab 3d b0 a5 c3 3d f0 99 a0 bd 2b f3 48 bc
       0.083811626 0.09553087 -0.07841861 -0.012265007
000250 a1 fc 00 3d bf cf 7f 3d b3 61 d1 bc 8f 08 dd bc
       0.031490926 0.06245398 -0.025559282 -0.02698162
000260 fa 6a e5 3c 84 d0 44 3c fb d4 7b 3d af 1a 8c 3c
       0.028005112 0.012012605 0.06148241 0.017102567
000270 14 1e e2 3c 21 48 95 bb d2 b6 ff 3c 8b 4f 5b 3d
       0.027602233 -0.0045557176 0.031215105 0.053542655
000280 9d 2a 62 3d 79 e5 9d bc f2 4c 32 bd aa e2 fd 3c
       0.05521642 -0.01927446 -0.043530412 0.03099187
000290 46 33 c5 3d c3 e8 9c 3d 48 e6 aa 3c 00 cd 07 3d
       0.0962892 0.07661583 0.02086176 0.033154488
0002a0 61 ef 64 bd 1d a7 c5 bb 8d 58 40 bc 04 43 0b bc
       -0.055892352 -0.0060318843 -0.011739862 -0.0084998645
0002b0 6f ab c7 bc 33 60 12 3d 2e a8 7c bc cc 72 f4 bc
       -0.024373738 0.035736274 -0.015420957 -0.029839896
0002c0 66 72 91 bd c9 88 73 3b c0 17 98 bd 9b 51 a9 3c
       -0.07101898 0.0037160388 -0.07426405 0.020668795
0002d0 61 12 b0 3d c0 1a 9d bc d8 0f ae 3d 9c 5b 36 bd
       0.085972555 -0.019177794 0.08499116 -0.04452096
0002e0 bb 10 07 3d fb 7c 8e 3d 5a d1 f9 3b 50 25 50 3d
       0.03297494 0.06957432 0.0076238336 0.050816834
0002f0 fa 29 c4 3d 5b 28 c6 3a e6 da c0 3d 06 c0 1c bd
       0.09578319 0.0015118228 0.094167516 -0.038269065
000300 95 be 82 bd 85 32 81 bd dd 45 7d 3d 7f 57 95 bd
       -0.06384007 -0.06308464 0.061834205 -0.07292079
000310 fb 1f ee 3c 26 24 01 bd 9e 3f 83 bd d8 cb 31 bd
       0.029067984 -0.031528614 -0.064086184 -0.04340729
000320 7a f6 ad 3d d0 09 2b bc 31 ba 8a 3d 90 34 3c bd
       0.08494277 -0.010439351 0.067737944 -0.045948565
000330 4c 3c 1b bd 27 c2 04 3d 5f f6 c2 3d 06 dd c1 bc
       -0.0378993 0.03241172 0.09519648 -0.023664963
000340 7d a8 43 bd 13 0a 16 bc c7 5a 10 3b 79 8e 4e bd
       -0.047768105 -0.009157675 0.0022026764 -0.05042884
000350 c6 10 7b bd 96 ca 29 3d 65 73 b4 3d 66 06 b6 3d
       -0.061295293 0.041452967 0.08811072 0.08887939
000360 13 b2 41 bd 6e 77 67 3d b0 11 1c bd 3d f8 5c bd
       -0.047288965 0.05651038 -0.038102806 -0.053947676
000370 77 04 97 3d 04 6c e6 3c bf dd 97 bd ae da 5c bc
       0.073738985 0.028127678 -0.074153416 -0.013479872
000380 40 af cd 3d f6 79 97 bd 53 6f 01 3d fc 3c 7b bd
       0.10043192 -0.07396309 0.031600308 -0.061337456
000390 50 e5 11 3d af 52 44 bd c5 76 8f bc d3 99 1b 3d
       0.03561908 -0.047930416 -0.017512688 0.037988495
0003a0 c6 c5 9e bd 32 29 95 3d 95 a7 f5 bc fa 8c 4a bd
       -0.07752566 0.07283248 -0.029987136 -0.049450852
0003b0 a0 00 88 3c 65 48 99 b9 e9 d9 8a bd bd e4 8e bd
       0.01660186 -0.00029236372 -0.06779844 -0.06977222
0003c0 f6 45 92 bb ad ac ba 3d ba 15 88 3c 96 6e a4 3c
       -0.0044639064 0.091149665 0.016611923 0.020072263
0003d0 57 e0 60 bc 05 35 66 3b 0f 5f bd 3d d9 f1 7e bd
       -0.013725362 0.0035126817 0.092466466 -0.062242363
0003e0 fe 7f 8d 3d 0a 2f 86 3d 93 70 99 bd 47 63 1c 3c
       0.06909178 0.06551941 -0.07492175 0.009545154
0003f0 45 b8 37 bd 06 ea 92 3d 9a 9c 89 bd 27 5b 7c 3d
       -0.044853467 0.07173543 -0.067193225 0.061610367

bias f4 [3]
000000 67 f3 ee bc f9 64 bd 3d 53 1c db bc
       -0.029168798 0.09247775 -0.026746904
